==========================================================================================
Layer (type:depth-idx)                   Output Shape              Param #
==========================================================================================
Beit                                     [1, 1000]                 1,024
├─PatchEmbed: 1-1                        [1, 576, 1024]            --
│    └─Conv2d: 2-1                       [1, 1024, 24, 24]         787,456
│    └─Identity: 2-2                     [1, 576, 1024]            --
├─Dropout: 1-2                           [1, 577, 1024]            --
├─ModuleList: 1-3                        --                        --
│    └─Block: 2-3                        [1, 577, 1024]            2,048
│    │    └─LayerNorm: 3-1               [1, 577, 1024]            2,048
│    │    └─Attention: 3-2               [1, 577, 1024]            4,232,768
│    │    └─Identity: 3-3                [1, 577, 1024]            --
│    │    └─LayerNorm: 3-4               [1, 577, 1024]            2,048
│    │    └─Mlp: 3-5                     [1, 577, 1024]            8,393,728
│    │    └─Identity: 3-6                [1, 577, 1024]            --
│    └─Block: 2-4                        [1, 577, 1024]            2,048
│    │    └─LayerNorm: 3-7               [1, 577, 1024]            2,048
│    │    └─Attention: 3-8               [1, 577, 1024]            4,232,768
│    │    └─Identity: 3-9                [1, 577, 1024]            --
│    │    └─LayerNorm: 3-10              [1, 577, 1024]            2,048
│    │    └─Mlp: 3-11                    [1, 577, 1024]            8,393,728
│    │    └─Identity: 3-12               [1, 577, 1024]            --
│    └─Block: 2-5                        [1, 577, 1024]            2,048
│    │    └─LayerNorm: 3-13              [1, 577, 1024]            2,048
│    │    └─Attention: 3-14              [1, 577, 1024]            4,232,768
│    │    └─Identity: 3-15               [1, 577, 1024]            --
│    │    └─LayerNorm: 3-16              [1, 577, 1024]            2,048
│    │    └─Mlp: 3-17                    [1, 577, 1024]            8,393,728
│    │    └─Identity: 3-18               [1, 577, 1024]            --
│    └─Block: 2-6                        [1, 577, 1024]            2,048
│    │    └─LayerNorm: 3-19              [1, 577, 1024]            2,048
│    │    └─Attention: 3-20              [1, 577, 1024]            4,232,768
│    │    └─Identity: 3-21               [1, 577, 1024]            --
│    │    └─LayerNorm: 3-22              [1, 577, 1024]            2,048
│    │    └─Mlp: 3-23                    [1, 577, 1024]            8,393,728
│    │    └─Identity: 3-24               [1, 577, 1024]            --
│    └─Block: 2-7                        [1, 577, 1024]            2,048
│    │    └─LayerNorm: 3-25              [1, 577, 1024]            2,048
│    │    └─Attention: 3-26              [1, 577, 1024]            4,232,768
│    │    └─Identity: 3-27               [1, 577, 1024]            --
│    │    └─LayerNorm: 3-28              [1, 577, 1024]            2,048
│    │    └─Mlp: 3-29                    [1, 577, 1024]            8,393,728
│    │    └─Identity: 3-30               [1, 577, 1024]            --
│    └─Block: 2-8                        [1, 577, 1024]            2,048
│    │    └─LayerNorm: 3-31              [1, 577, 1024]            2,048
│    │    └─Attention: 3-32              [1, 577, 1024]            4,232,768
│    │    └─Identity: 3-33               [1, 577, 1024]            --
│    │    └─LayerNorm: 3-34              [1, 577, 1024]            2,048
│    │    └─Mlp: 3-35                    [1, 577, 1024]            8,393,728
│    │    └─Identity: 3-36               [1, 577, 1024]            --
│    └─Block: 2-9                        [1, 577, 1024]            2,048
│    │    └─LayerNorm: 3-37              [1, 577, 1024]            2,048
│    │    └─Attention: 3-38              [1, 577, 1024]            4,232,768
│    │    └─Identity: 3-39               [1, 577, 1024]            --
│    │    └─LayerNorm: 3-40              [1, 577, 1024]            2,048
│    │    └─Mlp: 3-41                    [1, 577, 1024]            8,393,728
│    │    └─Identity: 3-42               [1, 577, 1024]            --
│    └─Block: 2-10                       [1, 577, 1024]            2,048
│    │    └─LayerNorm: 3-43              [1, 577, 1024]            2,048
│    │    └─Attention: 3-44              [1, 577, 1024]            4,232,768
│    │    └─Identity: 3-45               [1, 577, 1024]            --
│    │    └─LayerNorm: 3-46              [1, 577, 1024]            2,048
│    │    └─Mlp: 3-47                    [1, 577, 1024]            8,393,728
│    │    └─Identity: 3-48               [1, 577, 1024]            --
│    └─Block: 2-11                       [1, 577, 1024]            2,048
│    │    └─LayerNorm: 3-49              [1, 577, 1024]            2,048
│    │    └─Attention: 3-50              [1, 577, 1024]            4,232,768
│    │    └─Identity: 3-51               [1, 577, 1024]            --
│    │    └─LayerNorm: 3-52              [1, 577, 1024]            2,048
│    │    └─Mlp: 3-53                    [1, 577, 1024]            8,393,728
│    │    └─Identity: 3-54               [1, 577, 1024]            --
│    └─Block: 2-12                       [1, 577, 1024]            2,048
│    │    └─LayerNorm: 3-55              [1, 577, 1024]            2,048
│    │    └─Attention: 3-56              [1, 577, 1024]            4,232,768
│    │    └─Identity: 3-57               [1, 577, 1024]            --
│    │    └─LayerNorm: 3-58              [1, 577, 1024]            2,048
│    │    └─Mlp: 3-59                    [1, 577, 1024]            8,393,728
│    │    └─Identity: 3-60               [1, 577, 1024]            --
│    └─Block: 2-13                       [1, 577, 1024]            2,048
│    │    └─LayerNorm: 3-61              [1, 577, 1024]            2,048
│    │    └─Attention: 3-62              [1, 577, 1024]            4,232,768
│    │    └─Identity: 3-63               [1, 577, 1024]            --
│    │    └─LayerNorm: 3-64              [1, 577, 1024]            2,048
│    │    └─Mlp: 3-65                    [1, 577, 1024]            8,393,728
│    │    └─Identity: 3-66               [1, 577, 1024]            --
│    └─Block: 2-14                       [1, 577, 1024]            2,048
│    │    └─LayerNorm: 3-67              [1, 577, 1024]            2,048
│    │    └─Attention: 3-68              [1, 577, 1024]            4,232,768
│    │    └─Identity: 3-69               [1, 577, 1024]            --
│    │    └─LayerNorm: 3-70              [1, 577, 1024]            2,048
│    │    └─Mlp: 3-71                    [1, 577, 1024]            8,393,728
│    │    └─Identity: 3-72               [1, 577, 1024]            --
│    └─Block: 2-15                       [1, 577, 1024]            2,048
│    │    └─LayerNorm: 3-73              [1, 577, 1024]            2,048
│    │    └─Attention: 3-74              [1, 577, 1024]            4,232,768
│    │    └─Identity: 3-75               [1, 577, 1024]            --
│    │    └─LayerNorm: 3-76              [1, 577, 1024]            2,048
│    │    └─Mlp: 3-77                    [1, 577, 1024]            8,393,728
│    │    └─Identity: 3-78               [1, 577, 1024]            --
│    └─Block: 2-16                       [1, 577, 1024]            2,048
│    │    └─LayerNorm: 3-79              [1, 577, 1024]            2,048
│    │    └─Attention: 3-80              [1, 577, 1024]            4,232,768
│    │    └─Identity: 3-81               [1, 577, 1024]            --
│    │    └─LayerNorm: 3-82              [1, 577, 1024]            2,048
│    │    └─Mlp: 3-83                    [1, 577, 1024]            8,393,728
│    │    └─Identity: 3-84               [1, 577, 1024]            --
│    └─Block: 2-17                       [1, 577, 1024]            2,048
│    │    └─LayerNorm: 3-85              [1, 577, 1024]            2,048
│    │    └─Attention: 3-86              [1, 577, 1024]            4,232,768
│    │    └─Identity: 3-87               [1, 577, 1024]            --
│    │    └─LayerNorm: 3-88              [1, 577, 1024]            2,048
│    │    └─Mlp: 3-89                    [1, 577, 1024]            8,393,728
│    │    └─Identity: 3-90               [1, 577, 1024]            --
│    └─Block: 2-18                       [1, 577, 1024]            2,048
│    │    └─LayerNorm: 3-91              [1, 577, 1024]            2,048
│    │    └─Attention: 3-92              [1, 577, 1024]            4,232,768
│    │    └─Identity: 3-93               [1, 577, 1024]            --
│    │    └─LayerNorm: 3-94              [1, 577, 1024]            2,048
│    │    └─Mlp: 3-95                    [1, 577, 1024]            8,393,728
│    │    └─Identity: 3-96               [1, 577, 1024]            --
│    └─Block: 2-19                       [1, 577, 1024]            2,048
│    │    └─LayerNorm: 3-97              [1, 577, 1024]            2,048
│    │    └─Attention: 3-98              [1, 577, 1024]            4,232,768
│    │    └─Identity: 3-99               [1, 577, 1024]            --
│    │    └─LayerNorm: 3-100             [1, 577, 1024]            2,048
│    │    └─Mlp: 3-101                   [1, 577, 1024]            8,393,728
│    │    └─Identity: 3-102              [1, 577, 1024]            --
│    └─Block: 2-20                       [1, 577, 1024]            2,048
│    │    └─LayerNorm: 3-103             [1, 577, 1024]            2,048
│    │    └─Attention: 3-104             [1, 577, 1024]            4,232,768
│    │    └─Identity: 3-105              [1, 577, 1024]            --
│    │    └─LayerNorm: 3-106             [1, 577, 1024]            2,048
│    │    └─Mlp: 3-107                   [1, 577, 1024]            8,393,728
│    │    └─Identity: 3-108              [1, 577, 1024]            --
│    └─Block: 2-21                       [1, 577, 1024]            2,048
│    │    └─LayerNorm: 3-109             [1, 577, 1024]            2,048
│    │    └─Attention: 3-110             [1, 577, 1024]            4,232,768
│    │    └─Identity: 3-111              [1, 577, 1024]            --
│    │    └─LayerNorm: 3-112             [1, 577, 1024]            2,048
│    │    └─Mlp: 3-113                   [1, 577, 1024]            8,393,728
│    │    └─Identity: 3-114              [1, 577, 1024]            --
│    └─Block: 2-22                       [1, 577, 1024]            2,048
│    │    └─LayerNorm: 3-115             [1, 577, 1024]            2,048
│    │    └─Attention: 3-116             [1, 577, 1024]            4,232,768
│    │    └─Identity: 3-117              [1, 577, 1024]            --
│    │    └─LayerNorm: 3-118             [1, 577, 1024]            2,048
│    │    └─Mlp: 3-119                   [1, 577, 1024]            8,393,728
│    │    └─Identity: 3-120              [1, 577, 1024]            --
│    └─Block: 2-23                       [1, 577, 1024]            2,048
│    │    └─LayerNorm: 3-121             [1, 577, 1024]            2,048
│    │    └─Attention: 3-122             [1, 577, 1024]            4,232,768
│    │    └─Identity: 3-123              [1, 577, 1024]            --
│    │    └─LayerNorm: 3-124             [1, 577, 1024]            2,048
│    │    └─Mlp: 3-125                   [1, 577, 1024]            8,393,728
│    │    └─Identity: 3-126              [1, 577, 1024]            --
│    └─Block: 2-24                       [1, 577, 1024]            2,048
│    │    └─LayerNorm: 3-127             [1, 577, 1024]            2,048
│    │    └─Attention: 3-128             [1, 577, 1024]            4,232,768
│    │    └─Identity: 3-129              [1, 577, 1024]            --
│    │    └─LayerNorm: 3-130             [1, 577, 1024]            2,048
│    │    └─Mlp: 3-131                   [1, 577, 1024]            8,393,728
│    │    └─Identity: 3-132              [1, 577, 1024]            --
│    └─Block: 2-25                       [1, 577, 1024]            2,048
│    │    └─LayerNorm: 3-133             [1, 577, 1024]            2,048
│    │    └─Attention: 3-134             [1, 577, 1024]            4,232,768
│    │    └─Identity: 3-135              [1, 577, 1024]            --
│    │    └─LayerNorm: 3-136             [1, 577, 1024]            2,048
│    │    └─Mlp: 3-137                   [1, 577, 1024]            8,393,728
│    │    └─Identity: 3-138              [1, 577, 1024]            --
│    └─Block: 2-26                       [1, 577, 1024]            2,048
│    │    └─LayerNorm: 3-139             [1, 577, 1024]            2,048
│    │    └─Attention: 3-140             [1, 577, 1024]            4,232,768
│    │    └─Identity: 3-141              [1, 577, 1024]            --
│    │    └─LayerNorm: 3-142             [1, 577, 1024]            2,048
│    │    └─Mlp: 3-143                   [1, 577, 1024]            8,393,728
│    │    └─Identity: 3-144              [1, 577, 1024]            --
├─Identity: 1-4                          [1, 577, 1024]            --
├─LayerNorm: 1-5                         [1, 1024]                 2,048
├─Dropout: 1-6                           [1, 1024]                 --
├─Linear: 1-7                            [1, 1000]                 1,025,000
==========================================================================================
Total params: 304,998,888
Trainable params: 304,998,888
Non-trainable params: 0
Total mult-adds (M): 681.34
==========================================================================================
Input size (MB): 1.77
Forward/backward pass size (MB): 912.28
Params size (MB): 914.21
Estimated Total Size (MB): 1828.26
…
