====================================================================================================
Layer (type:depth-idx)                             Output Shape              Param #
====================================================================================================
MetaFormer                                         [1, 1000]                 --
├─Stem: 1-1                                        [1, 96, 96, 96]           --
│    └─Conv2d: 2-1                                 [1, 96, 96, 96]           14,208
│    └─LayerNorm2dNoBias: 2-2                      [1, 96, 96, 96]           96
├─Sequential: 1-2                                  [1, 576, 12, 12]          --
│    └─MetaFormerStage: 2-3                        [1, 96, 96, 96]           --
│    │    └─Identity: 3-1                          [1, 96, 96, 96]           --
│    │    └─Sequential: 3-2                        [1, 96, 96, 96]           360,588
│    └─MetaFormerStage: 2-4                        [1, 192, 48, 48]          --
│    │    └─Downsampling: 3-3                      [1, 192, 48, 48]          166,176
│    │    └─Sequential: 3-4                        [1, 192, 48, 48]          5,538,864
│    └─MetaFormerStage: 2-5                        [1, 384, 24, 24]          --
│    │    └─Downsampling: 3-5                      [1, 384, 24, 24]          664,128
│    │    └─Sequential: 3-6                        [1, 384, 24, 24]          32,555,592
│    └─MetaFormerStage: 2-6                        [1, 576, 12, 12]          --
│    │    └─Downsampling: 3-7                      [1, 576, 12, 12]          1,991,616
│    │    └─Sequential: 3-8                        [1, 576, 12, 12]          12,120,204
├─Sequential: 1-3                                  --                        --
│    └─SelectAdaptivePool2d: 2-7                   [1, 576, 1, 1]            --
│    │    └─AdaptiveAvgPool2d: 3-9                 [1, 576, 1, 1]            --
│    │    └─Identity: 3-10                         [1, 576, 1, 1]            --
│    └─LayerNorm2d: 2-8                            [1, 576, 1, 1]            1,152
│    └─Flatten: 2-9                                [1, 576]                  --
│    └─Dropout: 2-10                               [1, 576]                  --
│    └─MlpHead: 2-11                               [1, 1000]                 --
│    │    └─Linear: 3-11                           [1, 2304]                 1,329,408
│    │    └─SquaredReLU: 3-12                      [1, 2304]                 --
│    │    └─LayerNorm: 3-13                        [1, 2304]                 4,608
│    │    └─Dropout: 3-14                          [1, 2304]                 --
│    │    └─Linear: 3-15                           [1, 1000]                 2,305,000
====================================================================================================
Total params: 57,051,640
Trainable params: 57,051,640
Non-trainable params: 0
Total mult-adds (G): 37.74
====================================================================================================
Input size (MB): 1.77
Forward/backward pass size (MB): 1270.75
Params size (MB): 228.21
Estimated Total Size (MB): 1500.73
…
