==============================================================================================================
Layer (type:depth-idx)                                       Output Shape              Param #
==============================================================================================================
ConvNeXt                                                     [1, 1000]                 --
├─Sequential: 1-1                                            [1, 352, 96, 96]          --
│    └─Conv2d: 2-1                                           [1, 352, 96, 96]          17,248
│    └─LayerNorm2d: 2-2                                      [1, 352, 96, 96]          704
├─Sequential: 1-2                                            [1, 2816, 12, 12]         --
│    └─ConvNeXtStage: 2-3                                    [1, 352, 96, 96]          --
│    │    └─Identity: 3-1                                    [1, 352, 96, 96]          --
│    │    └─Sequential: 3-2                                  [1, 352, 96, 96]          3,042,336
│    └─ConvNeXtStage: 2-4                                    [1, 704, 48, 48]          --
│    │    └─Sequential: 3-3                                  [1, 704, 48, 48]          992,640
│    │    └─Sequential: 3-4                                  [1, 704, 48, 48]          12,032,064
│    └─ConvNeXtStage: 2-5                                    [1, 1408, 24, 24]         --
│    │    └─Sequential: 3-5                                  [1, 1408, 24, 24]         3,967,744
│    │    └─Sequential: 3-6                                  [1, 1408, 24, 24]         430,683,264
│    └─ConvNeXtStage: 2-6                                    [1, 2816, 12, 12]         --
│    │    └─Sequential: 3-7                                  [1, 2816, 12, 12]         15,865,344
│    │    └─Sequential: 3-8                                  [1, 2816, 12, 12]         190,865,664
├─Identity: 1-3                                              [1, 2816, 12, 12]         --
├─NormMlpClassifierHead: 1-4                                 [1, 1000]                 --
│    └─SelectAdaptivePool2d: 2-7                             [1, 2816, 1, 1]           --
│    │    └─AdaptiveAvgPool2d: 3-9                           [1, 2816, 1, 1]           --
│    │    └─Identity: 3-10                                   [1, 2816, 1, 1]           --
│    └─LayerNorm2d: 2-8                                      [1, 2816, 1, 1]           5,632
│    └─Flatten: 2-9                                          [1, 2816]                 --
│    └─Identity: 2-10                                        [1, 2816]                 --
│    └─Dropout: 2-11                                         [1, 2816]                 --
│    └─Linear: 2-12                                          [1, 1000]                 2,817,000
==============================================================================================================
Total params: 660,289,640
Trainable params: 660,289,640
Non-trainable params: 0
Total mult-adds (G): 9.54
==============================================================================================================
Input size (MB): 1.77
Forward/backward pass size (MB): 3438.70
Params size (MB): 2641.16
…
