==============================================================================================================
Layer (type:depth-idx)                                       Output Shape              Param #
==============================================================================================================
EfficientVit                                                 [1, 1000]                 --
├─Stem: 1-1                                                  [1, 16, 144, 144]         --
│    └─ConvNormAct: 2-1                                      [1, 16, 144, 144]         --
│    │    └─Dropout: 3-1                                     [1, 3, 288, 288]          --
│    │    └─Conv2d: 3-2                                      [1, 16, 144, 144]         432
│    │    └─BatchNorm2d: 3-3                                 [1, 16, 144, 144]         32
│    │    └─Hardswish: 3-4                                   [1, 16, 144, 144]         --
│    └─ResidualBlock: 2-2                                    [1, 16, 144, 144]         --
│    │    └─Identity: 3-5                                    [1, 16, 144, 144]         --
│    │    └─DSConv: 3-6                                      [1, 16, 144, 144]         464
│    │    └─Identity: 3-7                                    [1, 16, 144, 144]         --
├─Sequential: 1-2                                            [1, 256, 9, 9]            --
│    └─EfficientVitStage: 2-3                                [1, 32, 72, 72]           --
│    │    └─Sequential: 3-8                                  [1, 32, 72, 72]           13,888
│    └─EfficientVitStage: 2-4                                [1, 64, 36, 36]           --
│    │    └─Sequential: 3-9                                  [1, 64, 36, 36]           86,528
│    └─EfficientVitStage: 2-5                                [1, 128, 18, 18]          --
│    │    └─Sequential: 3-10                                 [1, 128, 18, 18]          756,864
│    └─EfficientVitStage: 2-6                                [1, 256, 9, 9]            --
│    │    └─Sequential: 3-11                                 [1, 256, 9, 9]            3,785,728
├─ClassifierHead: 1-3                                        [1, 1000]                 --
│    └─ConvNormAct: 2-7                                      [1, 1536, 9, 9]           --
│    │    └─Dropout: 3-12                                    [1, 256, 9, 9]            --
│    │    └─Conv2d: 3-13                                     [1, 1536, 9, 9]           393,216
│    │    └─BatchNorm2d: 3-14                                [1, 1536, 9, 9]           3,072
│    │    └─Hardswish: 3-15                                  [1, 1536, 9, 9]           --
│    └─SelectAdaptivePool2d: 2-8                             [1, 1536]                 --
│    │    └─AdaptiveAvgPool2d: 3-16                          [1, 1536, 1, 1]           --
│    │    └─Flatten: 3-17                                    [1, 1536]                 --
│    └─Sequential: 2-9                                       [1, 1000]                 --
│    │    └─Linear: 3-18                                     [1, 1600]                 2,457,600
│    │    └─LayerNorm: 3-19                                  [1, 1600]                 3,200
│    │    └─Hardswish: 3-20                                  [1, 1600]                 --
│    │    └─Dropout: 3-21                                    [1, 1600]                 --
│    │    └─Linear: 3-22                                     [1, 1000]                 1,601,000
==============================================================================================================
Total params: 9,102,024
Trainable params: 9,102,024
Non-trainable params: 0
Total mult-adds (M): 843.84
==============================================================================================================
Input size (MB): 1.00
Forward/backward pass size (MB): 150.33
Params size (MB): 36.41
…
