====================================================================================================
Layer (type:depth-idx)                             Output Shape              Param #
====================================================================================================
GhostNet                                           [1, 1000]                 --
├─Conv2d: 1-1                                      [1, 16, 112, 112]         432
├─BatchNorm2d: 1-2                                 [1, 16, 112, 112]         32
├─ReLU: 1-3                                        [1, 16, 112, 112]         --
├─Sequential: 1-4                                  [1, 960, 7, 7]            --
│    └─Sequential: 2-1                             [1, 16, 112, 112]         --
│    │    └─GhostBottleneck: 3-1                   [1, 16, 112, 112]         464
│    └─Sequential: 2-2                             [1, 24, 56, 56]           --
│    │    └─GhostBottleneck: 3-2                   [1, 24, 56, 56]           2,564
│    └─Sequential: 2-3                             [1, 24, 56, 56]           --
│    │    └─GhostBottleneck: 3-3                   [1, 24, 56, 56]           5,232
│    └─Sequential: 2-4                             [1, 40, 28, 28]           --
│    │    └─GhostBottleneck: 3-4                   [1, 40, 28, 28]           12,516
│    └─Sequential: 2-5                             [1, 40, 28, 28]           --
│    │    └─GhostBottleneck: 3-5                   [1, 40, 28, 28]           20,392
│    └─Sequential: 2-6                             [1, 80, 14, 14]           --
│    │    └─GhostBottleneck: 3-6                   [1, 80, 14, 14]           36,360
│    └─Sequential: 2-7                             [1, 112, 14, 14]          --
│    │    └─GhostBottleneck: 3-7                   [1, 80, 14, 14]           37,020
│    │    └─GhostBottleneck: 3-8                   [1, 80, 14, 14]           34,100
│    │    └─GhostBottleneck: 3-9                   [1, 80, 14, 14]           34,100
│    │    └─GhostBottleneck: 3-10                  [1, 112, 14, 14]          221,872
│    │    └─GhostBottleneck: 3-11                  [1, 112, 14, 14]          393,008
│    └─Sequential: 2-8                             [1, 160, 7, 7]            --
│    │    └─GhostBottleneck: 3-12                  [1, 160, 7, 7]            448,856
│    └─Sequential: 2-9                             [1, 160, 7, 7]            --
│    │    └─GhostBottleneck: 3-13                  [1, 160, 7, 7]            329,840
│    │    └─GhostBottleneck: 3-14                  [1, 160, 7, 7]            791,840
│    │    └─GhostBottleneck: 3-15                  [1, 160, 7, 7]            329,840
│    │    └─GhostBottleneck: 3-16                  [1, 160, 7, 7]            791,840
│    └─Sequential: 2-10                            [1, 960, 7, 7]            --
│    │    └─ConvBnAct: 3-17                        [1, 960, 7, 7]            155,520
├─SelectAdaptivePool2d: 1-5                        [1, 960, 1, 1]            --
│    └─AdaptiveAvgPool2d: 2-11                     [1, 960, 1, 1]            --
│    └─Identity: 2-12                              [1, 960, 1, 1]            --
├─Conv2d: 1-6                                      [1, 1280, 1, 1]           1,230,080
├─ReLU: 1-7                                        [1, 1280, 1, 1]           --
├─Flatten: 1-8                                     [1, 1280]                 --
├─Linear: 1-9                                      [1, 1000]                 1,281,000
====================================================================================================
Total params: 6,156,908
Trainable params: 6,156,908
Non-trainable params: 0
Total mult-adds (M): 167.12
====================================================================================================
Input size (MB): 0.60
Forward/backward pass size (MB): 72.38
Params size (MB): 24.62
Estimated Total Size (MB): 97.61
…
