===============================================================================================
Layer (type:depth-idx)                        Output Shape              Param #
===============================================================================================
MobileNetV3                                   [1, 1000]                 --
├─Conv2d: 1-1                                 [1, 32, 112, 112]         864
├─BatchNormAct2d: 1-2                         [1, 32, 112, 112]         64
│    └─Identity: 2-1                          [1, 32, 112, 112]         --
│    └─Hardswish: 2-2                         [1, 32, 112, 112]         --
├─Sequential: 1-3                             [1, 960, 7, 7]            --
│    └─Sequential: 2-3                        [1, 16, 112, 112]         --
│    │    └─DepthwiseSeparableConv: 3-1       [1, 16, 112, 112]         896
│    └─Sequential: 2-4                        [1, 24, 56, 56]           --
│    │    └─InvertedResidual: 3-2             [1, 24, 56, 56]           3,360
│    │    └─InvertedResidual: 3-3             [1, 24, 56, 56]           9,144
│    └─Sequential: 2-5                        [1, 40, 28, 28]           --
│    │    └─InvertedResidual: 3-4             [1, 40, 28, 28]           6,776
│    │    └─InvertedResidual: 3-5             [1, 40, 28, 28]           13,160
│    │    └─InvertedResidual: 3-6             [1, 40, 28, 28]           13,160
│    │    └─InvertedResidual: 3-7             [1, 40, 28, 28]           13,160
│    └─Sequential: 2-6                        [1, 80, 14, 14]           --
│    │    └─InvertedResidual: 3-8             [1, 80, 14, 14]           24,000
│    │    └─InvertedResidual: 3-9             [1, 80, 14, 14]           206,680
│    │    └─InvertedResidual: 3-10            [1, 80, 14, 14]           41,680
│    │    └─InvertedResidual: 3-11            [1, 80, 14, 14]           41,680
│    └─Sequential: 2-7                        [1, 112, 14, 14]          --
│    │    └─InvertedResidual: 3-12            [1, 112, 14, 14]          222,104
│    │    └─InvertedResidual: 3-13            [1, 112, 14, 14]          79,856
│    │    └─InvertedResidual: 3-14            [1, 112, 14, 14]          79,856
│    │    └─InvertedResidual: 3-15            [1, 112, 14, 14]          79,856
│    └─Sequential: 2-8                        [1, 192, 7, 7]            --
│    │    └─InvertedResidual: 3-16            [1, 192, 7, 7]            450,792
│    │    └─InvertedResidual: 3-17            [1, 192, 7, 7]            1,141,152
│    │    └─InvertedResidual: 3-18            [1, 192, 7, 7]            395,664
│    └─Sequential: 2-9                        [1, 960, 7, 7]            --
│    │    └─ConvBnAct: 3-19                   [1, 960, 7, 7]            186,240
├─SelectAdaptivePool2d: 1-4                   [1, 960, 1, 1]            --
│    └─AdaptiveAvgPool2d: 2-10                [1, 960, 1, 1]            --
│    └─Identity: 2-11                         [1, 960, 1, 1]            --
├─Conv2d: 1-5                                 [1, 1280, 1, 1]           1,230,080
├─Hardswish: 1-6                              [1, 1280, 1, 1]           --
├─Flatten: 1-7                                [1, 1280]                 --
├─Linear: 1-8                                 [1, 1000]                 1,281,000
===============================================================================================
Total params: 5,521,224
Trainable params: 5,521,224
Non-trainable params: 0
Total mult-adds (M): 270.06
===============================================================================================
Input size (MB): 0.60
Forward/backward pass size (MB): 40.11
Params size (MB): 21.98
Estimated Total Size (MB): 62.68
…
