===============================================================================================
Layer (type:depth-idx)                        Output Shape              Param #
===============================================================================================
RegNet                                        [1, 1000]                 --
├─ConvNormAct: 1-1                            [1, 32, 112, 112]         --
│    └─Conv2d: 2-1                            [1, 32, 112, 112]         864
│    └─BatchNormAct2d: 2-2                    [1, 32, 112, 112]         64
│    │    └─Identity: 3-1                     [1, 32, 112, 112]         --
│    │    └─ReLU: 3-2                         [1, 32, 112, 112]         --
├─RegStage: 1-2                               [1, 48, 56, 56]           --
│    └─Bottleneck: 2-3                        [1, 48, 56, 56]           --
│    │    └─ConvNormAct: 3-3                  [1, 48, 112, 112]         1,632
│    │    └─ConvNormAct: 3-4                  [1, 48, 56, 56]           10,464
│    │    └─SEModule: 3-5                     [1, 48, 56, 56]           824
│    │    └─ConvNormAct: 3-6                  [1, 48, 56, 56]           2,400
│    │    └─Identity: 3-7                     [1, 48, 56, 56]           --
│    │    └─ConvNormAct: 3-8                  [1, 48, 56, 56]           1,632
│    │    └─ReLU: 3-9                         [1, 48, 56, 56]           --
│    └─Bottleneck: 2-4                        [1, 48, 56, 56]           --
│    │    └─ConvNormAct: 3-10                 [1, 48, 56, 56]           2,400
│    │    └─ConvNormAct: 3-11                 [1, 48, 56, 56]           10,464
│    │    └─SEModule: 3-12                    [1, 48, 56, 56]           1,212
│    │    └─ConvNormAct: 3-13                 [1, 48, 56, 56]           2,400
│    │    └─Identity: 3-14                    [1, 48, 56, 56]           --
│    │    └─Identity: 3-15                    [1, 48, 56, 56]           --
│    │    └─ReLU: 3-16                        [1, 48, 56, 56]           --
├─RegStage: 1-3                               [1, 120, 28, 28]          --
│    └─Bottleneck: 2-5                        [1, 120, 28, 28]          --
│    │    └─ConvNormAct: 3-17                 [1, 120, 56, 56]          6,000
│    │    └─ConvNormAct: 3-18                 [1, 120, 28, 28]          26,160
│    │    └─SEModule: 3-19                    [1, 120, 28, 28]          3,012
│    │    └─ConvNormAct: 3-20                 [1, 120, 28, 28]          14,640
│    │    └─Identity: 3-21                    [1, 120, 28, 28]          --
│    │    └─ConvNormAct: 3-22                 [1, 120, 28, 28]          6,000
│    │    └─ReLU: 3-23                        [1, 120, 28, 28]          --
│    └─Bottleneck: 2-6                        [1, 120, 28, 28]          --
│    │    └─ConvNormAct: 3-24                 [1, 120, 28, 28]          14,640
│    │    └─ConvNormAct: 3-25                 [1, 120, 28, 28]          26,160
│    │    └─SEModule: 3-26                    [1, 120, 28, 28]          7,350
│    │    └─ConvNormAct: 3-27                 [1, 120, 28, 28]          14,640
│    │    └─Identity: 3-28                    [1, 120, 28, 28]          --
│    │    └─Identity: 3-29                    [1, 120, 28, 28]          --
│    │    └─ReLU: 3-30                        [1, 120, 28, 28]          --
│    └─Bottleneck: 2-7                        [1, 120, 28, 28]          --
│    │    └─ConvNormAct: 3-31                 [1, 120, 28, 28]          14,640
│    │    └─ConvNormAct: 3-32                 [1, 120, 28, 28]          26,160
│    │    └─SEModule: 3-33                    [1, 120, 28, 28]          7,350
│    │    └─ConvNormAct: 3-34                 [1, 120, 28, 28]          14,640
│    │    └─Identity: 3-35                    [1, 120, 28, 28]          --
│    │    └─Identity: 3-36                    [1, 120, 28, 28]          --
│    │    └─ReLU: 3-37                        [1, 120, 28, 28]          --
│    └─Bottleneck: 2-8                        [1, 120, 28, 28]          --
│    │    └─ConvNormAct: 3-38                 [1, 120, 28, 28]          14,640
│    │    └─ConvNormAct: 3-39                 [1, 120, 28, 28]          26,160
│    │    └─SEModule: 3-40                    [1, 120, 28, 28]          7,350
│    │    └─ConvNormAct: 3-41                 [1, 120, 28, 28]          14,640
│    │    └─Identity: 3-42                    [1, 120, 28, 28]          --
│    │    └─Identity: 3-43                    [1, 120, 28, 28]          --
│    │    └─ReLU: 3-44                        [1, 120, 28, 28]          --
│    └─Bottleneck: 2-9                        [1, 120, 28, 28]          --
│    │    └─ConvNormAct: 3-45                 [1, 120, 28, 28]          14,640
│    │    └─ConvNormAct: 3-46                 [1, 120, 28, 28]          26,160
│    │    └─SEModule: 3-47                    [1, 120, 28, 28]          7,350
│    │    └─ConvNormAct: 3-48                 [1, 120, 28, 28]          14,640
│    │    └─Identity: 3-49                    [1, 120, 28, 28]          --
│    │    └─Identity: 3-50                    [1, 120, 28, 28]          --
│    │    └─ReLU: 3-51                        [1, 120, 28, 28]          --
│    └─Bottleneck: 2-10                       [1, 120, 28, 28]          --
│    │    └─ConvNormAct: 3-52                 [1, 120, 28, 28]          14,640
│    │    └─ConvNormAct: 3-53                 [1, 120, 28, 28]          26,160
│    │    └─SEModule: 3-54                    [1, 120, 28, 28]          7,350
│    │    └─ConvNormAct: 3-55                 [1, 120, 28, 28]          14,640
│    │    └─Identity: 3-56                    [1, 120, 28, 28]          --
│    │    └─Identity: 3-57                    [1, 120, 28, 28]          --
│    │    └─ReLU: 3-58                        [1, 120, 28, 28]          --
├─RegStage: 1-4                               [1, 336, 14, 14]          --
│    └─Bottleneck: 2-11                       [1, 336, 14, 14]          --
│    │    └─ConvNormAct: 3-59                 [1, 336, 28, 28]          40,992
│    │    └─ConvNormAct: 3-60                 [1, 336, 14, 14]          73,248
│    │    └─SEModule: 3-61                    [1, 336, 14, 14]          20,526
│    │    └─ConvNormAct: 3-62                 [1, 336, 14, 14]          113,568
│    │    └─Identity: 3-63                    [1, 336, 14, 14]          --
│    │    └─ConvNormAct: 3-64                 [1, 336, 14, 14]          40,992
│    │    └─ReLU: 3-65                        [1, 336, 14, 14]          --
│    └─Bottleneck: 2-12                       [1, 336, 14, 14]          --
│    │    └─ConvNormAct: 3-66                 [1, 336, 14, 14]          113,568
│    │    └─ConvNormAct: 3-67                 [1, 336, 14, 14]          73,248
│    │    └─SEModule: 3-68                    [1, 336, 14, 14]          56,868
│    │    └─ConvNormAct: 3-69                 [1, 336, 14, 14]          113,568
│    │    └─Identity: 3-70                    [1, 336, 14, 14]          --
│    │    └─Identity: 3-71                    [1, 336, 14, 14]          --
│    │    └─ReLU: 3-72                        [1, 336, 14, 14]          --
│    └─Bottleneck: 2-13                       [1, 336, 14, 14]          --
│    │    └─ConvNormAct: 3-73                 [1, 336, 14, 14]          113,568
│    │    └─ConvNormAct: 3-74                 [1, 336, 14, 14]          73,248
│    │    └─SEModule: 3-75                    [1, 336, 14, 14]          56,868
│    │    └─ConvNormAct: 3-76                 [1, 336, 14, 14]          113,568
│    │    └─Identity: 3-77                    [1, 336, 14, 14]          --
│    │    └─Identity: 3-78                    [1, 336, 14, 14]          --
│    │    └─ReLU: 3-79                        [1, 336, 14, 14]          --
│    └─Bottleneck: 2-14                       [1, 336, 14, 14]          --
│    │    └─ConvNormAct: 3-80                 [1, 336, 14, 14]          113,568
│    │    └─ConvNormAct: 3-81                 [1, 336, 14, 14]          73,248
│    │    └─SEModule: 3-82                    [1, 336, 14, 14]          56,868
│    │    └─ConvNormAct: 3-83                 [1, 336, 14, 14]          113,568
│    │    └─Identity: 3-84                    [1, 336, 14, 14]          --
│    │    └─Identity: 3-85                    [1, 336, 14, 14]          --
│    │    └─ReLU: 3-86                        [1, 336, 14, 14]          --
│    └─Bottleneck: 2-15                       [1, 336, 14, 14]          --
│    │    └─ConvNormAct: 3-87                 [1, 336, 14, 14]          113,568
│    │    └─ConvNormAct: 3-88                 [1, 336, 14, 14]          73,248
│    │    └─SEModule: 3-89                    [1, 336, 14, 14]          56,868
│    │    └─ConvNormAct: 3-90                 [1, 336, 14, 14]          113,568
│    │    └─Identity: 3-91                    [1, 336, 14, 14]          --
│    │    └─Identity: 3-92                    [1, 336, 14, 14]          --
│    │    └─ReLU: 3-93                        [1, 336, 14, 14]          --
│    └─Bottleneck: 2-16                       [1, 336, 14, 14]          --
│    │    └─ConvNormAct: 3-94                 [1, 336, 14, 14]          113,568
│    │    └─ConvNormAct: 3-95                 [1, 336, 14, 14]          73,248
│    │    └─SEModule: 3-96                    [1, 336, 14, 14]          56,868
│    │    └─ConvNormAct: 3-97                 [1, 336, 14, 14]          113,568
│    │    └─Identity: 3-98                    [1, 336, 14, 14]          --
│    │    └─Identity: 3-99                    [1, 336, 14, 14]          --
│    │    └─ReLU: 3-100                       [1, 336, 14, 14]          --
│    └─Bottleneck: 2-17                       [1, 336, 14, 14]          --
│    │    └─ConvNormAct: 3-101                [1, 336, 14, 14]          113,568
│    │    └─ConvNormAct: 3-102                [1, 336, 14, 14]          73,248
│    │    └─SEModule: 3-103                   [1, 336, 14, 14]          56,868
│    │    └─ConvNormAct: 3-104                [1, 336, 14, 14]          113,568
│    │    └─Identity: 3-105                   [1, 336, 14, 14]          --
│    │    └─Identity: 3-106                   [1, 336, 14, 14]          --
│    │    └─ReLU: 3-107                       [1, 336, 14, 14]          --
│    └─Bottleneck: 2-18                       [1, 336, 14, 14]          --
│    │    └─ConvNormAct: 3-108                [1, 336, 14, 14]          113,568
│    │    └─ConvNormAct: 3-109                [1, 336, 14, 14]          73,248
│    │    └─SEModule: 3-110                   [1, 336, 14, 14]          56,868
│    │    └─ConvNormAct: 3-111                [1, 336, 14, 14]          113,568
│    │    └─Identity: 3-112                   [1, 336, 14, 14]          --
│    │    └─Identity: 3-113                   [1, 336, 14, 14]          --
│    │    └─ReLU: 3-114                       [1, 336, 14, 14]          --
│    └─Bottleneck: 2-19                       [1, 336, 14, 14]          --
│    │    └─ConvNormAct: 3-115                [1, 336, 14, 14]          113,568
│    │    └─ConvNormAct: 3-116                [1, 336, 14, 14]          73,248
│    │    └─SEModule: 3-117                   [1, 336, 14, 14]          56,868
│    │    └─ConvNormAct: 3-118                [1, 336, 14, 14]          113,568
│    │    └─Identity: 3-119                   [1, 336, 14, 14]          --
│    │    └─Identity: 3-120                   [1, 336, 14, 14]          --
│    │    └─ReLU: 3-121                       [1, 336, 14, 14]          --
│    └─Bottleneck: 2-20                       [1, 336, 14, 14]          --
│    │    └─ConvNormAct: 3-122                [1, 336, 14, 14]          113,568
│    │    └─ConvNormAct: 3-123                [1, 336, 14, 14]          73,248
│    │    └─SEModule: 3-124                   [1, 336, 14, 14]          56,868
│    │    └─ConvNormAct: 3-125                [1, 336, 14, 14]          113,568
│    │    └─Identity: 3-126                   [1, 336, 14, 14]          --
│    │    └─Identity: 3-127                   [1, 336, 14, 14]          --
│    │    └─ReLU: 3-128                       [1, 336, 14, 14]          --
│    └─Bottleneck: 2-21                       [1, 336, 14, 14]          --
│    │    └─ConvNormAct: 3-129                [1, 336, 14, 14]          113,568
│    │    └─ConvNormAct: 3-130                [1, 336, 14, 14]          73,248
│    │    └─SEModule: 3-131                   [1, 336, 14, 14]          56,868
│    │    └─ConvNormAct: 3-132                [1, 336, 14, 14]          113,568
│    │    └─Identity: 3-133                   [1, 336, 14, 14]          --
│    │    └─Identity: 3-134                   [1, 336, 14, 14]          --
│    │    └─ReLU: 3-135                       [1, 336, 14, 14]          --
│    └─Bottleneck: 2-22                       [1, 336, 14, 14]          --
│    │    └─ConvNormAct: 3-136                [1, 336, 14, 14]          113,568
│    │    └─ConvNormAct: 3-137                [1, 336, 14, 14]          73,248
│    │    └─SEModule: 3-138                   [1, 336, 14, 14]          56,868
│    │    └─ConvNormAct: 3-139                [1, 336, 14, 14]          113,568
│    │    └─Identity: 3-140                   [1, 336, 14, 14]          --
│    │    └─Identity: 3-141                   [1, 336, 14, 14]          --
│    │    └─ReLU: 3-142                       [1, 336, 14, 14]          --
│    └─Bottleneck: 2-23                       [1, 336, 14, 14]          --
│    │    └─ConvNormAct: 3-143                [1, 336, 14, 14]          113,568
│    │    └─ConvNormAct: 3-144                [1, 336, 14, 14]          73,248
│    │    └─SEModule: 3-145                   [1, 336, 14, 14]          56,868
│    │    └─ConvNormAct: 3-146                [1, 336, 14, 14]          113,568
│    │    └─Identity: 3-147                   [1, 336, 14, 14]          --
│    │    └─Identity: 3-148                   [1, 336, 14, 14]          --
│    │    └─ReLU: 3-149                       [1, 336, 14, 14]          --
│    └─Bottleneck: 2-24                       [1, 336, 14, 14]          --
│    │    └─ConvNormAct: 3-150                [1, 336, 14, 14]          113,568
│    │    └─ConvNormAct: 3-151                [1, 336, 14, 14]          73,248
│    │    └─SEModule: 3-152                   [1, 336, 14, 14]          56,868
│    │    └─ConvNormAct: 3-153                [1, 336, 14, 14]          113,568
│    │    └─Identity: 3-154                   [1, 336, 14, 14]          --
│    │    └─Identity: 3-155                   [1, 336, 14, 14]          --
│    │    └─ReLU: 3-156                       [1, 336, 14, 14]          --
│    └─Bottleneck: 2-25                       [1, 336, 14, 14]          --
│    │    └─ConvNormAct: 3-157                [1, 336, 14, 14]          113,568
│    │    └─ConvNormAct: 3-158                [1, 336, 14, 14]          73,248
│    │    └─SEModule: 3-159                   [1, 336, 14, 14]          56,868
│    │    └─ConvNormAct: 3-160                [1, 336, 14, 14]          113,568
│    │    └─Identity: 3-161                   [1, 336, 14, 14]          --
│    │    └─Identity: 3-162                   [1, 336, 14, 14]          --
│    │    └─ReLU: 3-163                       [1, 336, 14, 14]          --
│    └─Bottleneck: 2-26                       [1, 336, 14, 14]          --
│    │    └─ConvNormAct: 3-164                [1, 336, 14, 14]          113,568
│    │    └─ConvNormAct: 3-165                [1, 336, 14, 14]          73,248
│    │    └─SEModule: 3-166                   [1, 336, 14, 14]          56,868
│    │    └─ConvNormAct: 3-167                [1, 336, 14, 14]          113,568
│    │    └─Identity: 3-168                   [1, 336, 14, 14]          --
│    │    └─Identity: 3-169                   [1, 336, 14, 14]          --
│    │    └─ReLU: 3-170                       [1, 336, 14, 14]          --
│    └─Bottleneck: 2-27                       [1, 336, 14, 14]          --
│    │    └─ConvNormAct: 3-171                [1, 336, 14, 14]          113,568
│    │    └─ConvNormAct: 3-172                [1, 336, 14, 14]          73,248
│    │    └─SEModule: 3-173                   [1, 336, 14, 14]          56,868
│    │    └─ConvNormAct: 3-174                [1, 336, 14, 14]          113,568
│    │    └─Identity: 3-175                   [1, 336, 14, 14]          --
│    │    └─Identity: 3-176                   [1, 336, 14, 14]          --
│    │    └─ReLU: 3-177                       [1, 336, 14, 14]          --
├─RegStage: 1-5                               [1, 888, 7, 7]            --
│    └─Bottleneck: 2-28                       [1, 888, 7, 7]            --
│    │    └─ConvNormAct: 3-178                [1, 888, 14, 14]          300,144
│    │    └─ConvNormAct: 3-179                [1, 888, 7, 7]            193,584
│    │    └─SEModule: 3-180                   [1, 888, 7, 7]            150,156
│    │    └─ConvNormAct: 3-181                [1, 888, 7, 7]            790,320
│    │    └─Identity: 3-182                   [1, 888, 7, 7]            --
│    │    └─ConvNormAct: 3-183                [1, 888, 7, 7]            300,144
│    │    └─ReLU: 3-184                       [1, 888, 7, 7]            --
│    └─Bottleneck: 2-29                       [1, 888, 7, 7]            --
│    │    └─ConvNormAct: 3-185                [1, 888, 7, 7]            790,320
│    │    └─ConvNormAct: 3-186                [1, 888, 7, 7]            193,584
│    │    └─SEModule: 3-187                   [1, 888, 7, 7]            395,382
│    │    └─ConvNormAct: 3-188                [1, 888, 7, 7]            790,320
│    │    └─Identity: 3-189                   [1, 888, 7, 7]            --
│    │    └─Identity: 3-190                   [1, 888, 7, 7]            --
│    │    └─ReLU: 3-191                       [1, 888, 7, 7]            --
├─Identity: 1-6                               [1, 888, 7, 7]            --
├─ClassifierHead: 1-7                         [1, 1000]                 --
│    └─SelectAdaptivePool2d: 2-30             [1, 888]                  --
│    │    └─AdaptiveAvgPool2d: 3-192          [1, 888, 1, 1]            --
│    │    └─Flatten: 3-193                    [1, 888]                  --
│    └─Dropout: 2-31                          [1, 888]                  --
│    └─Linear: 2-32                           [1, 1000]                 889,000
│    └─Identity: 2-33                         [1, 1000]                 --
===============================================================================================
Total params: 11,202,430
Trainable params: 11,202,430
Non-trainable params: 0
Total mult-adds (G): 1.61
===============================================================================================
Input size (MB): 0.60
Forward/backward pass size (MB): 64.36
Params size (MB): 44.60
Estimated Total Size (MB): 109.56
…
