===============================================================================================
Layer (type:depth-idx)                        Output Shape              Param #
===============================================================================================
RegNet                                        [1, 1000]                 --
├─ConvNormAct: 1-1                            [1, 32, 192, 192]         --
│    └─Conv2d: 2-1                            [1, 32, 192, 192]         864
│    └─BatchNormAct2d: 2-2                    [1, 32, 192, 192]         64
│    │    └─Identity: 3-1                     [1, 32, 192, 192]         --
│    │    └─ReLU: 3-2                         [1, 32, 192, 192]         --
├─RegStage: 1-2                               [1, 746, 96, 96]          --
│    └─Bottleneck: 2-3                        [1, 746, 96, 96]          --
│    │    └─ConvNormAct: 3-3                  [1, 746, 192, 192]        25,364
│    │    └─ConvNormAct: 3-4                  [1, 746, 96, 96]          2,505,814
│    │    └─SEModule: 3-5                     [1, 746, 96, 96]          12,690
│    │    └─ConvNormAct: 3-6                  [1, 746, 96, 96]          558,008
│    │    └─Identity: 3-7                     [1, 746, 96, 96]          --
│    │    └─ConvNormAct: 3-8                  [1, 746, 96, 96]          25,364
│    │    └─ReLU: 3-9                         [1, 746, 96, 96]          --
│    └─Bottleneck: 2-4                        [1, 746, 96, 96]          --
│    │    └─ConvNormAct: 3-10                 [1, 746, 96, 96]          558,008
│    │    └─ConvNormAct: 3-11                 [1, 746, 96, 96]          2,505,814
│    │    └─SEModule: 3-12                    [1, 746, 96, 96]          278,444
│    │    └─ConvNormAct: 3-13                 [1, 746, 96, 96]          558,008
│    │    └─Identity: 3-14                    [1, 746, 96, 96]          --
│    │    └─Identity: 3-15                    [1, 746, 96, 96]          --
│    │    └─ReLU: 3-16                        [1, 746, 96, 96]          --
├─RegStage: 1-3                               [1, 1492, 48, 48]         --
│    └─Bottleneck: 2-5                        [1, 1492, 48, 48]         --
│    │    └─ConvNormAct: 3-17                 [1, 1492, 96, 96]         1,116,016
│    │    └─ConvNormAct: 3-18                 [1, 1492, 48, 48]         5,011,628
│    │    └─SEModule: 3-19                    [1, 1492, 48, 48]         556,702
│    │    └─ConvNormAct: 3-20                 [1, 1492, 48, 48]         2,229,048
│    │    └─Identity: 3-21                    [1, 1492, 48, 48]         --
│    │    └─ConvNormAct: 3-22                 [1, 1492, 48, 48]         1,116,016
│    │    └─ReLU: 3-23                        [1, 1492, 48, 48]         --
│    └─Bottleneck: 2-6                        [1, 1492, 48, 48]         --
│    │    └─ConvNormAct: 3-24                 [1, 1492, 48, 48]         2,229,048
│    │    └─ConvNormAct: 3-25                 [1, 1492, 48, 48]         5,011,628
│    │    └─SEModule: 3-26                    [1, 1492, 48, 48]         1,114,897
│    │    └─ConvNormAct: 3-27                 [1, 1492, 48, 48]         2,229,048
│    │    └─Identity: 3-28                    [1, 1492, 48, 48]         --
│    │    └─Identity: 3-29                    [1, 1492, 48, 48]         --
│    │    └─ReLU: 3-30                        [1, 1492, 48, 48]         --
│    └─Bottleneck: 2-7                        [1, 1492, 48, 48]         --
│    │    └─ConvNormAct: 3-31                 [1, 1492, 48, 48]         2,229,048
│    │    └─ConvNormAct: 3-32                 [1, 1492, 48, 48]         5,011,628
│    │    └─SEModule: 3-33                    [1, 1492, 48, 48]         1,114,897
│    │    └─ConvNormAct: 3-34                 [1, 1492, 48, 48]         2,229,048
│    │    └─Identity: 3-35                    [1, 1492, 48, 48]         --
│    │    └─Identity: 3-36                    [1, 1492, 48, 48]         --
│    │    └─ReLU: 3-37                        [1, 1492, 48, 48]         --
│    └─Bottleneck: 2-8                        [1, 1492, 48, 48]         --
│    │    └─ConvNormAct: 3-38                 [1, 1492, 48, 48]         2,229,048
│    │    └─ConvNormAct: 3-39                 [1, 1492, 48, 48]         5,011,628
│    │    └─SEModule: 3-40                    [1, 1492, 48, 48]         1,114,897
│    │    └─ConvNormAct: 3-41                 [1, 1492, 48, 48]         2,229,048
│    │    └─Identity: 3-42                    [1, 1492, 48, 48]         --
│    │    └─Identity: 3-43                    [1, 1492, 48, 48]         --
│    │    └─ReLU: 3-44                        [1, 1492, 48, 48]         --
│    └─Bottleneck: 2-9                        [1, 1492, 48, 48]         --
│    │    └─ConvNormAct: 3-45                 [1, 1492, 48, 48]         2,229,048
│    │    └─ConvNormAct: 3-46                 [1, 1492, 48, 48]         5,011,628
│    │    └─SEModule: 3-47                    [1, 1492, 48, 48]         1,114,897
│    │    └─ConvNormAct: 3-48                 [1, 1492, 48, 48]         2,229,048
│    │    └─Identity: 3-49                    [1, 1492, 48, 48]         --
│    │    └─Identity: 3-50                    [1, 1492, 48, 48]         --
│    │    └─ReLU: 3-51                        [1, 1492, 48, 48]         --
│    └─Bottleneck: 2-10                       [1, 1492, 48, 48]         --
│    │    └─ConvNormAct: 3-52                 [1, 1492, 48, 48]         2,229,048
│    │    └─ConvNormAct: 3-53                 [1, 1492, 48, 48]         5,011,628
│    │    └─SEModule: 3-54                    [1, 1492, 48, 48]         1,114,897
│    │    └─ConvNormAct: 3-55                 [1, 1492, 48, 48]         2,229,048
│    │    └─Identity: 3-56                    [1, 1492, 48, 48]         --
│    │    └─Identity: 3-57                    [1, 1492, 48, 48]         --
│    │    └─ReLU: 3-58                        [1, 1492, 48, 48]         --
│    └─Bottleneck: 2-11                       [1, 1492, 48, 48]         --
│    │    └─ConvNormAct: 3-59                 [1, 1492, 48, 48]         2,229,048
│    │    └─ConvNormAct: 3-60                 [1, 1492, 48, 48]         5,011,628
│    │    └─SEModule: 3-61                    [1, 1492, 48, 48]         1,114,897
│    │    └─ConvNormAct: 3-62                 [1, 1492, 48, 48]         2,229,048
│    │    └─Identity: 3-63                    [1, 1492, 48, 48]         --
│    │    └─Identity: 3-64                    [1, 1492, 48, 48]         --
│    │    └─ReLU: 3-65                        [1, 1492, 48, 48]         --
├─RegStage: 1-4                               [1, 4103, 24, 24]         --
│    └─Bottleneck: 2-12                       [1, 4103, 24, 24]         --
│    │    └─ConvNormAct: 3-66                 [1, 4103, 48, 48]         6,129,882
│    │    └─ConvNormAct: 3-67                 [1, 4103, 24, 24]         13,781,977
│    │    └─SEModule: 3-68                    [1, 4103, 24, 24]         3,065,314
│    │    └─ConvNormAct: 3-69                 [1, 4103, 24, 24]         16,842,815
│    │    └─Identity: 3-70                    [1, 4103, 24, 24]         --
│    │    └─ConvNormAct: 3-71                 [1, 4103, 24, 24]         6,129,882
│    │    └─ReLU: 3-72                        [1, 4103, 24, 24]         --
│    └─Bottleneck: 2-13                       [1, 4103, 24, 24]         --
│    │    └─ConvNormAct: 3-73                 [1, 4103, 24, 24]         16,842,815
│    │    └─ConvNormAct: 3-74                 [1, 4103, 24, 24]         13,781,977
│    │    └─SEModule: 3-75                    [1, 4103, 24, 24]         8,424,485
│    │    └─ConvNormAct: 3-76                 [1, 4103, 24, 24]         16,842,815
│    │    └─Identity: 3-77                    [1, 4103, 24, 24]         --
│    │    └─Identity: 3-78                    [1, 4103, 24, 24]         --
│    │    └─ReLU: 3-79                        [1, 4103, 24, 24]         --
│    └─Bottleneck: 2-14                       [1, 4103, 24, 24]         --
│    │    └─ConvNormAct: 3-80                 [1, 4103, 24, 24]         16,842,815
│    │    └─ConvNormAct: 3-81                 [1, 4103, 24, 24]         13,781,977
│    │    └─SEModule: 3-82                    [1, 4103, 24, 24]         8,424,485
│    │    └─ConvNormAct: 3-83                 [1, 4103, 24, 24]         16,842,815
│    │    └─Identity: 3-84                    [1, 4103, 24, 24]         --
│    │    └─Identity: 3-85                    [1, 4103, 24, 24]         --
│    │    └─ReLU: 3-86                        [1, 4103, 24, 24]         --
│    └─Bottleneck: 2-15                       [1, 4103, 24, 24]         --
│    │    └─ConvNormAct: 3-87                 [1, 4103, 24, 24]         16,842,815
│    │    └─ConvNormAct: 3-88                 [1, 4103, 24, 24]         13,781,977
│    │    └─SEModule: 3-89                    [1, 4103, 24, 24]         8,424,485
│    │    └─ConvNormAct: 3-90                 [1, 4103, 24, 24]         16,842,815
│    │    └─Identity: 3-91                    [1, 4103, 24, 24]         --
│    │    └─Identity: 3-92                    [1, 4103, 24, 24]         --
│    │    └─ReLU: 3-93                        [1, 4103, 24, 24]         --
│    └─Bottleneck: 2-16                       [1, 4103, 24, 24]         --
│    │    └─ConvNormAct: 3-94                 [1, 4103, 24, 24]         16,842,815
│    │    └─ConvNormAct: 3-95                 [1, 4103, 24, 24]         13,781,977
│    │    └─SEModule: 3-96                    [1, 4103, 24, 24]         8,424,485
│    │    └─ConvNormAct: 3-97                 [1, 4103, 24, 24]         16,842,815
│    │    └─Identity: 3-98                    [1, 4103, 24, 24]         --
│    │    └─Identity: 3-99                    [1, 4103, 24, 24]         --
│    │    └─ReLU: 3-100                       [1, 4103, 24, 24]         --
│    └─Bottleneck: 2-17                       [1, 4103, 24, 24]         --
│    │    └─ConvNormAct: 3-101                [1, 4103, 24, 24]         16,842,815
│    │    └─ConvNormAct: 3-102                [1, 4103, 24, 24]         13,781,977
│    │    └─SEModule: 3-103                   [1, 4103, 24, 24]         8,424,485
│    │    └─ConvNormAct: 3-104                [1, 4103, 24, 24]         16,842,815
│    │    └─Identity: 3-105                   [1, 4103, 24, 24]         --
│    │    └─Identity: 3-106                   [1, 4103, 24, 24]         --
│    │    └─ReLU: 3-107                       [1, 4103, 24, 24]         --
│    └─Bottleneck: 2-18                       [1, 4103, 24, 24]         --
│    │    └─ConvNormAct: 3-108                [1, 4103, 24, 24]         16,842,815
│    │    └─ConvNormAct: 3-109                [1, 4103, 24, 24]         13,781,977
│    │    └─SEModule: 3-110                   [1, 4103, 24, 24]         8,424,485
│    │    └─ConvNormAct: 3-111                [1, 4103, 24, 24]         16,842,815
│    │    └─Identity: 3-112                   [1, 4103, 24, 24]         --
│    │    └─Identity: 3-113                   [1, 4103, 24, 24]         --
│    │    └─ReLU: 3-114                       [1, 4103, 24, 24]         --
│    └─Bottleneck: 2-19                       [1, 4103, 24, 24]         --
│    │    └─ConvNormAct: 3-115                [1, 4103, 24, 24]         16,842,815
│    │    └─ConvNormAct: 3-116                [1, 4103, 24, 24]         13,781,977
│    │    └─SEModule: 3-117                   [1, 4103, 24, 24]         8,424,485
│    │    └─ConvNormAct: 3-118                [1, 4103, 24, 24]         16,842,815
│    │    └─Identity: 3-119                   [1, 4103, 24, 24]         --
│    │    └─Identity: 3-120                   [1, 4103, 24, 24]         --
│    │    └─ReLU: 3-121                       [1, 4103, 24, 24]         --
│    └─Bottleneck: 2-20                       [1, 4103, 24, 24]         --
│    │    └─ConvNormAct: 3-122                [1, 4103, 24, 24]         16,842,815
│    │    └─ConvNormAct: 3-123                [1, 4103, 24, 24]         13,781,977
│    │    └─SEModule: 3-124                   [1, 4103, 24, 24]         8,424,485
│    │    └─ConvNormAct: 3-125                [1, 4103, 24, 24]         16,842,815
│    │    └─Identity: 3-126                   [1, 4103, 24, 24]         --
│    │    └─Identity: 3-127                   [1, 4103, 24, 24]         --
│    │    └─ReLU: 3-128                       [1, 4103, 24, 24]         --
│    └─Bottleneck: 2-21                       [1, 4103, 24, 24]         --
│    │    └─ConvNormAct: 3-129                [1, 4103, 24, 24]         16,842,815
│    │    └─ConvNormAct: 3-130                [1, 4103, 24, 24]         13,781,977
│    │    └─SEModule: 3-131                   [1, 4103, 24, 24]         8,424,485
│    │    └─ConvNormAct: 3-132                [1, 4103, 24, 24]         16,842,815
│    │    └─Identity: 3-133                   [1, 4103, 24, 24]         --
│    │    └─Identity: 3-134                   [1, 4103, 24, 24]         --
│    │    └─ReLU: 3-135                       [1, 4103, 24, 24]         --
│    └─Bottleneck: 2-22                       [1, 4103, 24, 24]         --
│    │    └─ConvNormAct: 3-136                [1, 4103, 24, 24]         16,842,815
│    │    └─ConvNormAct: 3-137                [1, 4103, 24, 24]         13,781,977
│    │    └─SEModule: 3-138                   [1, 4103, 24, 24]         8,424,485
│    │    └─ConvNormAct: 3-139                [1, 4103, 24, 24]         16,842,815
│    │    └─Identity: 3-140                   [1, 4103, 24, 24]         --
│    │    └─Identity: 3-141                   [1, 4103, 24, 24]         --
│    │    └─ReLU: 3-142                       [1, 4103, 24, 24]         --
│    └─Bottleneck: 2-23                       [1, 4103, 24, 24]         --
│    │    └─ConvNormAct: 3-143                [1, 4103, 24, 24]         16,842,815
│    │    └─ConvNormAct: 3-144                [1, 4103, 24, 24]         13,781,977
│    │    └─SEModule: 3-145                   [1, 4103, 24, 24]         8,424,485
│    │    └─ConvNormAct: 3-146                [1, 4103, 24, 24]         16,842,815
│    │    └─Identity: 3-147                   [1, 4103, 24, 24]         --
│    │    └─Identity: 3-148                   [1, 4103, 24, 24]         --
│    │    └─ReLU: 3-149                       [1, 4103, 24, 24]         --
│    └─Bottleneck: 2-24                       [1, 4103, 24, 24]         --
│    │    └─ConvNormAct: 3-150                [1, 4103, 24, 24]         16,842,815
│    │    └─ConvNormAct: 3-151                [1, 4103, 24, 24]         13,781,977
│    │    └─SEModule: 3-152                   [1, 4103, 24, 24]         8,424,485
│    │    └─ConvNormAct: 3-153                [1, 4103, 24, 24]         16,842,815
│    │    └─Identity: 3-154                   [1, 4103, 24, 24]         --
│    │    └─Identity: 3-155                   [1, 4103, 24, 24]         --
│    │    └─ReLU: 3-156                       [1, 4103, 24, 24]         --
│    └─Bottleneck: 2-25                       [1, 4103, 24, 24]         --
│    │    └─ConvNormAct: 3-157                [1, 4103, 24, 24]         16,842,815
│    │    └─ConvNormAct: 3-158                [1, 4103, 24, 24]         13,781,977
│    │    └─SEModule: 3-159                   [1, 4103, 24, 24]         8,424,485
│    │    └─ConvNormAct: 3-160                [1, 4103, 24, 24]         16,842,815
│    │    └─Identity: 3-161                   [1, 4103, 24, 24]         --
│    │    └─Identity: 3-162                   [1, 4103, 24, 24]         --
│    │    └─ReLU: 3-163                       [1, 4103, 24, 24]         --
│    └─Bottleneck: 2-26                       [1, 4103, 24, 24]         --
│    │    └─ConvNormAct: 3-164                [1, 4103, 24, 24]         16,842,815
│    │    └─ConvNormAct: 3-165                [1, 4103, 24, 24]         13,781,977
│    │    └─SEModule: 3-166                   [1, 4103, 24, 24]         8,424,485
│    │    └─ConvNormAct: 3-167                [1, 4103, 24, 24]         16,842,815
│    │    └─Identity: 3-168                   [1, 4103, 24, 24]         --
│    │    └─Identity: 3-169                   [1, 4103, 24, 24]         --
│    │    └─ReLU: 3-170                       [1, 4103, 24, 24]         --
│    └─Bottleneck: 2-27                       [1, 4103, 24, 24]         --
│    │    └─ConvNormAct: 3-171                [1, 4103, 24, 24]         16,842,815
│    │    └─ConvNormAct: 3-172                [1, 4103, 24, 24]         13,781,977
│    │    └─SEModule: 3-173                   [1, 4103, 24, 24]         8,424,485
│    │    └─ConvNormAct: 3-174                [1, 4103, 24, 24]         16,842,815
│    │    └─Identity: 3-175                   [1, 4103, 24, 24]         --
│    │    └─Identity: 3-176                   [1, 4103, 24, 24]         --
│    │    └─ReLU: 3-177                       [1, 4103, 24, 24]         --
│    └─Bottleneck: 2-28                       [1, 4103, 24, 24]         --
│    │    └─ConvNormAct: 3-178                [1, 4103, 24, 24]         16,842,815
│    │    └─ConvNormAct: 3-179                [1, 4103, 24, 24]         13,781,977
│    │    └─SEModule: 3-180                   [1, 4103, 24, 24]         8,424,485
│    │    └─ConvNormAct: 3-181                [1, 4103, 24, 24]         16,842,815
│    │    └─Identity: 3-182                   [1, 4103, 24, 24]         --
│    │    └─Identity: 3-183                   [1, 4103, 24, 24]         --
│    │    └─ReLU: 3-184                       [1, 4103, 24, 24]         --
├─RegStage: 1-5                               [1, 10444, 12, 12]        --
│    └─Bottleneck: 2-29                       [1, 10444, 12, 12]        --
│    │    └─ConvNormAct: 3-185                [1, 10444, 24, 24]        42,872,620
│    │    └─ConvNormAct: 3-186                [1, 10444, 12, 12]        35,081,396
│    │    └─SEModule: 3-187                   [1, 10444, 12, 12]        21,442,558
│    │    └─ConvNormAct: 3-188                [1, 10444, 12, 12]        109,098,024
│    │    └─Identity: 3-189                   [1, 10444, 12, 12]        --
│    │    └─ConvNormAct: 3-190                [1, 10444, 12, 12]        42,872,620
│    │    └─ReLU: 3-191                       [1, 10444, 12, 12]        --
├─Identity: 1-6                               [1, 10444, 12, 12]        --
├─ClassifierHead: 1-7                         [1, 1000]                 --
│    └─SelectAdaptivePool2d: 2-30             [1, 10444]                --
│    │    └─AdaptiveAvgPool2d: 3-192          [1, 10444, 1, 1]          --
│    │    └─Flatten: 3-193                    [1, 10444]                --
│    └─Dropout: 2-31                          [1, 10444]                --
│    └─Linear: 2-32                           [1, 1000]                 10,445,000
│    └─Identity: 2-33                         [1, 1000]                 --
===============================================================================================
Total params: 1,282,601,138
Trainable params: 1,282,601,138
Non-trainable params: 0
Total mult-adds (G): 747.24
===============================================================================================
Input size (MB): 1.77
Forward/backward pass size (MB): 2371.95
Params size (MB): 5128.06
Estimated Total Size (MB): 7501.78
…
