==========================================================================================
Layer (type:depth-idx)                   Output Shape              Param #
==========================================================================================
ResNet                                   [1, 1000]                 --
├─Sequential: 1-1                        [1, 64, 144, 144]         --
│    └─Conv2d: 2-1                       [1, 32, 144, 144]         864
│    └─BatchNorm2d: 2-2                  [1, 32, 144, 144]         64
│    └─ReLU: 2-3                         [1, 32, 144, 144]         --
│    └─Conv2d: 2-4                       [1, 32, 144, 144]         9,216
│    └─BatchNorm2d: 2-5                  [1, 32, 144, 144]         64
│    └─ReLU: 2-6                         [1, 32, 144, 144]         --
│    └─Conv2d: 2-7                       [1, 64, 144, 144]         18,432
├─BatchNorm2d: 1-2                       [1, 64, 144, 144]         128
├─ReLU: 1-3                              [1, 64, 144, 144]         --
├─Sequential: 1-4                        [1, 64, 72, 72]           --
│    └─Conv2d: 2-8                       [1, 64, 72, 72]           36,864
│    └─BatchNorm2d: 2-9                  [1, 64, 72, 72]           128
│    └─ReLU: 2-10                        [1, 64, 72, 72]           --
├─Sequential: 1-5                        [1, 256, 72, 72]          --
│    └─Bottleneck: 2-11                  [1, 256, 72, 72]          --
│    │    └─Conv2d: 3-1                  [1, 64, 72, 72]           4,096
│    │    └─BatchNorm2d: 3-2             [1, 64, 72, 72]           128
│    │    └─ReLU: 3-3                    [1, 64, 72, 72]           --
│    │    └─Conv2d: 3-4                  [1, 64, 72, 72]           36,864
│    │    └─BatchNorm2d: 3-5             [1, 64, 72, 72]           128
│    │    └─Identity: 3-6                [1, 64, 72, 72]           --
│    │    └─ReLU: 3-7                    [1, 64, 72, 72]           --
│    │    └─Identity: 3-8                [1, 64, 72, 72]           --
│    │    └─Conv2d: 3-9                  [1, 256, 72, 72]          16,384
│    │    └─BatchNorm2d: 3-10            [1, 256, 72, 72]          512
│    │    └─SEModule: 3-11               [1, 256, 72, 72]          33,088
│    │    └─Sequential: 3-12             [1, 256, 72, 72]          16,896
│    │    └─ReLU: 3-13                   [1, 256, 72, 72]          --
│    └─Bottleneck: 2-12                  [1, 256, 72, 72]          --
│    │    └─Conv2d: 3-14                 [1, 64, 72, 72]           16,384
│    │    └─BatchNorm2d: 3-15            [1, 64, 72, 72]           128
│    │    └─ReLU: 3-16                   [1, 64, 72, 72]           --
│    │    └─Conv2d: 3-17                 [1, 64, 72, 72]           36,864
│    │    └─BatchNorm2d: 3-18            [1, 64, 72, 72]           128
│    │    └─Identity: 3-19               [1, 64, 72, 72]           --
│    │    └─ReLU: 3-20                   [1, 64, 72, 72]           --
│    │    └─Identity: 3-21               [1, 64, 72, 72]           --
│    │    └─Conv2d: 3-22                 [1, 256, 72, 72]          16,384
│    │    └─BatchNorm2d: 3-23            [1, 256, 72, 72]          512
│    │    └─SEModule: 3-24               [1, 256, 72, 72]          33,088
│    │    └─ReLU: 3-25                   [1, 256, 72, 72]          --
│    └─Bottleneck: 2-13                  [1, 256, 72, 72]          --
│    │    └─Conv2d: 3-26                 [1, 64, 72, 72]           16,384
│    │    └─BatchNorm2d: 3-27            [1, 64, 72, 72]           128
│    │    └─ReLU: 3-28                   [1, 64, 72, 72]           --
│    │    └─Conv2d: 3-29                 [1, 64, 72, 72]           36,864
│    │    └─BatchNorm2d: 3-30            [1, 64, 72, 72]           128
│    │    └─Identity: 3-31               [1, 64, 72, 72]           --
│    │    └─ReLU: 3-32                   [1, 64, 72, 72]           --
│    │    └─Identity: 3-33               [1, 64, 72, 72]           --
│    │    └─Conv2d: 3-34                 [1, 256, 72, 72]          16,384
│    │    └─BatchNorm2d: 3-35            [1, 256, 72, 72]          512
│    │    └─SEModule: 3-36               [1, 256, 72, 72]          33,088
│    │    └─ReLU: 3-37                   [1, 256, 72, 72]          --
│    └─Bottleneck: 2-14                  [1, 256, 72, 72]          --
│    │    └─Conv2d: 3-38                 [1, 64, 72, 72]           16,384
│    │    └─BatchNorm2d: 3-39            [1, 64, 72, 72]           128
│    │    └─ReLU: 3-40                   [1, 64, 72, 72]           --
│    │    └─Conv2d: 3-41                 [1, 64, 72, 72]           36,864
│    │    └─BatchNorm2d: 3-42            [1, 64, 72, 72]           128
│    │    └─Identity: 3-43               [1, 64, 72, 72]           --
│    │    └─ReLU: 3-44                   [1, 64, 72, 72]           --
│    │    └─Identity: 3-45               [1, 64, 72, 72]           --
│    │    └─Conv2d: 3-46                 [1, 256, 72, 72]          16,384
│    │    └─BatchNorm2d: 3-47            [1, 256, 72, 72]          512
│    │    └─SEModule: 3-48               [1, 256, 72, 72]          33,088
│    │    └─ReLU: 3-49                   [1, 256, 72, 72]          --
├─Sequential: 1-6                        [1, 512, 36, 36]          --
│    └─Bottleneck: 2-15                  [1, 512, 36, 36]          --
│    │    └─Conv2d: 3-50                 [1, 128, 72, 72]          32,768
│    │    └─BatchNorm2d: 3-51            [1, 128, 72, 72]          256
│    │    └─ReLU: 3-52                   [1, 128, 72, 72]          --
│    │    └─Conv2d: 3-53                 [1, 128, 36, 36]          147,456
│    │    └─BatchNorm2d: 3-54            [1, 128, 36, 36]          256
│    │    └─Identity: 3-55               [1, 128, 36, 36]          --
│    │    └─ReLU: 3-56                   [1, 128, 36, 36]          --
│    │    └─Identity: 3-57               [1, 128, 36, 36]          --
│    │    └─Conv2d: 3-58                 [1, 512, 36, 36]          65,536
│    │    └─BatchNorm2d: 3-59            [1, 512, 36, 36]          1,024
│    │    └─SEModule: 3-60               [1, 512, 36, 36]          131,712
│    │    └─Sequential: 3-61             [1, 512, 36, 36]          132,096
│    │    └─ReLU: 3-62                   [1, 512, 36, 36]          --
│    └─Bottleneck: 2-16                  [1, 512, 36, 36]          --
│    │    └─Conv2d: 3-63                 [1, 128, 36, 36]          65,536
│    │    └─BatchNorm2d: 3-64            [1, 128, 36, 36]          256
│    │    └─ReLU: 3-65                   [1, 128, 36, 36]          --
│    │    └─Conv2d: 3-66                 [1, 128, 36, 36]          147,456
│    │    └─BatchNorm2d: 3-67            [1, 128, 36, 36]          256
│    │    └─Identity: 3-68               [1, 128, 36, 36]          --
│    │    └─ReLU: 3-69                   [1, 128, 36, 36]          --
│    │    └─Identity: 3-70               [1, 128, 36, 36]          --
│    │    └─Conv2d: 3-71                 [1, 512, 36, 36]          65,536
│    │    └─BatchNorm2d: 3-72            [1, 512, 36, 36]          1,024
│    │    └─SEModule: 3-73               [1, 512, 36, 36]          131,712
│    │    └─ReLU: 3-74                   [1, 512, 36, 36]          --
│    └─Bottleneck: 2-17                  [1, 512, 36, 36]          --
│    │    └─Conv2d: 3-75                 [1, 128, 36, 36]          65,536
│    │    └─BatchNorm2d: 3-76            [1, 128, 36, 36]          256
│    │    └─ReLU: 3-77                   [1, 128, 36, 36]          --
│    │    └─Conv2d: 3-78                 [1, 128, 36, 36]          147,456
│    │    └─BatchNorm2d: 3-79            [1, 128, 36, 36]          256
│    │    └─Identity: 3-80               [1, 128, 36, 36]          --
│    │    └─ReLU: 3-81                   [1, 128, 36, 36]          --
│    │    └─Identity: 3-82               [1, 128, 36, 36]          --
│    │    └─Conv2d: 3-83                 [1, 512, 36, 36]          65,536
│    │    └─BatchNorm2d: 3-84            [1, 512, 36, 36]          1,024
│    │    └─SEModule: 3-85               [1, 512, 36, 36]          131,712
│    │    └─ReLU: 3-86                   [1, 512, 36, 36]          --
│    └─Bottleneck: 2-18                  [1, 512, 36, 36]          --
│    │    └─Conv2d: 3-87                 [1, 128, 36, 36]          65,536
│    │    └─BatchNorm2d: 3-88            [1, 128, 36, 36]          256
│    │    └─ReLU: 3-89                   [1, 128, 36, 36]          --
│    │    └─Conv2d: 3-90                 [1, 128, 36, 36]          147,456
│    │    └─BatchNorm2d: 3-91            [1, 128, 36, 36]          256
│    │    └─Identity: 3-92               [1, 128, 36, 36]          --
│    │    └─ReLU: 3-93                   [1, 128, 36, 36]          --
│    │    └─Identity: 3-94               [1, 128, 36, 36]          --
│    │    └─Conv2d: 3-95                 [1, 512, 36, 36]          65,536
│    │    └─BatchNorm2d: 3-96            [1, 512, 36, 36]          1,024
│    │    └─SEModule: 3-97               [1, 512, 36, 36]          131,712
│    │    └─ReLU: 3-98                   [1, 512, 36, 36]          --
│    └─Bottleneck: 2-19                  [1, 512, 36, 36]          --
│    │    └─Conv2d: 3-99                 [1, 128, 36, 36]          65,536
│    │    └─BatchNorm2d: 3-100           [1, 128, 36, 36]          256
│    │    └─ReLU: 3-101                  [1, 128, 36, 36]          --
│    │    └─Conv2d: 3-102                [1, 128, 36, 36]          147,456
│    │    └─BatchNorm2d: 3-103           [1, 128, 36, 36]          256
│    │    └─Identity: 3-104              [1, 128, 36, 36]          --
│    │    └─ReLU: 3-105                  [1, 128, 36, 36]          --
│    │    └─Identity: 3-106              [1, 128, 36, 36]          --
│    │    └─Conv2d: 3-107                [1, 512, 36, 36]          65,536
│    │    └─BatchNorm2d: 3-108           [1, 512, 36, 36]          1,024
│    │    └─SEModule: 3-109              [1, 512, 36, 36]          131,712
│    │    └─ReLU: 3-110                  [1, 512, 36, 36]          --
│    └─Bottleneck: 2-20                  [1, 512, 36, 36]          --
│    │    └─Conv2d: 3-111                [1, 128, 36, 36]          65,536
│    │    └─BatchNorm2d: 3-112           [1, 128, 36, 36]          256
│    │    └─ReLU: 3-113                  [1, 128, 36, 36]          --
│    │    └─Conv2d: 3-114                [1, 128, 36, 36]          147,456
│    │    └─BatchNorm2d: 3-115           [1, 128, 36, 36]          256
│    │    └─Identity: 3-116              [1, 128, 36, 36]          --
│    │    └─ReLU: 3-117                  [1, 128, 36, 36]          --
│    │    └─Identity: 3-118              [1, 128, 36, 36]          --
│    │    └─Conv2d: 3-119                [1, 512, 36, 36]          65,536
│    │    └─BatchNorm2d: 3-120           [1, 512, 36, 36]          1,024
│    │    └─SEModule: 3-121              [1, 512, 36, 36]          131,712
│    │    └─ReLU: 3-122                  [1, 512, 36, 36]          --
│    └─Bottleneck: 2-21                  [1, 512, 36, 36]          --
│    │    └─Conv2d: 3-123                [1, 128, 36, 36]          65,536
│    │    └─BatchNorm2d: 3-124           [1, 128, 36, 36]          256
│    │    └─ReLU: 3-125                  [1, 128, 36, 36]          --
│    │    └─Conv2d: 3-126                [1, 128, 36, 36]          147,456
│    │    └─BatchNorm2d: 3-127           [1, 128, 36, 36]          256
│    │    └─Identity: 3-128              [1, 128, 36, 36]          --
│    │    └─ReLU: 3-129                  [1, 128, 36, 36]          --
│    │    └─Identity: 3-130              [1, 128, 36, 36]          --
│    │    └─Conv2d: 3-131                [1, 512, 36, 36]          65,536
│    │    └─BatchNorm2d: 3-132           [1, 512, 36, 36]          1,024
│    │    └─SEModule: 3-133              [1, 512, 36, 36]          131,712
│    │    └─ReLU: 3-134                  [1, 512, 36, 36]          --
│    └─Bottleneck: 2-22                  [1, 512, 36, 36]          --
│    │    └─Conv2d: 3-135                [1, 128, 36, 36]          65,536
│    │    └─BatchNorm2d: 3-136           [1, 128, 36, 36]          256
│    │    └─ReLU: 3-137                  [1, 128, 36, 36]          --
│    │    └─Conv2d: 3-138                [1, 128, 36, 36]          147,456
│    │    └─BatchNorm2d: 3-139           [1, 128, 36, 36]          256
│    │    └─Identity: 3-140              [1, 128, 36, 36]          --
│    │    └─ReLU: 3-141                  [1, 128, 36, 36]          --
│    │    └─Identity: 3-142              [1, 128, 36, 36]          --
│    │    └─Conv2d: 3-143                [1, 512, 36, 36]          65,536
│    │    └─BatchNorm2d: 3-144           [1, 512, 36, 36]          1,024
│    │    └─SEModule: 3-145              [1, 512, 36, 36]          131,712
│    │    └─ReLU: 3-146                  [1, 512, 36, 36]          --
│    └─Bottleneck: 2-23                  [1, 512, 36, 36]          --
│    │    └─Conv2d: 3-147                [1, 128, 36, 36]          65,536
│    │    └─BatchNorm2d: 3-148           [1, 128, 36, 36]          256
│    │    └─ReLU: 3-149                  [1, 128, 36, 36]          --
│    │    └─Conv2d: 3-150                [1, 128, 36, 36]          147,456
│    │    └─BatchNorm2d: 3-151           [1, 128, 36, 36]          256
│    │    └─Identity: 3-152              [1, 128, 36, 36]          --
│    │    └─ReLU: 3-153                  [1, 128, 36, 36]          --
│    │    └─Identity: 3-154              [1, 128, 36, 36]          --
│    │    └─Conv2d: 3-155                [1, 512, 36, 36]          65,536
│    │    └─BatchNorm2d: 3-156           [1, 512, 36, 36]          1,024
│    │    └─SEModule: 3-157              [1, 512, 36, 36]          131,712
│    │    └─ReLU: 3-158                  [1, 512, 36, 36]          --
│    └─Bottleneck: 2-24                  [1, 512, 36, 36]          --
│    │    └─Conv2d: 3-159                [1, 128, 36, 36]          65,536
│    │    └─BatchNorm2d: 3-160           [1, 128, 36, 36]          256
│    │    └─ReLU: 3-161                  [1, 128, 36, 36]          --
│    │    └─Conv2d: 3-162                [1, 128, 36, 36]          147,456
│    │    └─BatchNorm2d: 3-163           [1, 128, 36, 36]          256
│    │    └─Identity: 3-164              [1, 128, 36, 36]          --
│    │    └─ReLU: 3-165                  [1, 128, 36, 36]          --
│    │    └─Identity: 3-166              [1, 128, 36, 36]          --
│    │    └─Conv2d: 3-167                [1, 512, 36, 36]          65,536
│    │    └─BatchNorm2d: 3-168           [1, 512, 36, 36]          1,024
│    │    └─SEModule: 3-169              [1, 512, 36, 36]          131,712
│    │    └─ReLU: 3-170                  [1, 512, 36, 36]          --
│    └─Bottleneck: 2-25                  [1, 512, 36, 36]          --
│    │    └─Conv2d: 3-171                [1, 128, 36, 36]          65,536
│    │    └─BatchNorm2d: 3-172           [1, 128, 36, 36]          256
│    │    └─ReLU: 3-173                  [1, 128, 36, 36]          --
│    │    └─Conv2d: 3-174                [1, 128, 36, 36]          147,456
│    │    └─BatchNorm2d: 3-175           [1, 128, 36, 36]          256
│    │    └─Identity: 3-176              [1, 128, 36, 36]          --
│    │    └─ReLU: 3-177                  [1, 128, 36, 36]          --
│    │    └─Identity: 3-178              [1, 128, 36, 36]          --
│    │    └─Conv2d: 3-179                [1, 512, 36, 36]          65,536
│    │    └─BatchNorm2d: 3-180           [1, 512, 36, 36]          1,024
│    │    └─SEModule: 3-181              [1, 512, 36, 36]          131,712
│    │    └─ReLU: 3-182                  [1, 512, 36, 36]          --
│    └─Bottleneck: 2-26                  [1, 512, 36, 36]          --
│    │    └─Conv2d: 3-183                [1, 128, 36, 36]          65,536
│    │    └─BatchNorm2d: 3-184           [1, 128, 36, 36]          256
│    │    └─ReLU: 3-185                  [1, 128, 36, 36]          --
│    │    └─Conv2d: 3-186                [1, 128, 36, 36]          147,456
│    │    └─BatchNorm2d: 3-187           [1, 128, 36, 36]          256
│    │    └─Identity: 3-188              [1, 128, 36, 36]          --
│    │    └─ReLU: 3-189                  [1, 128, 36, 36]          --
│    │    └─Identity: 3-190              [1, 128, 36, 36]          --
│    │    └─Conv2d: 3-191                [1, 512, 36, 36]          65,536
│    │    └─BatchNorm2d: 3-192           [1, 512, 36, 36]          1,024
│    │    └─SEModule: 3-193              [1, 512, 36, 36]          131,712
│    │    └─ReLU: 3-194                  [1, 512, 36, 36]          --
│    └─Bottleneck: 2-27                  [1, 512, 36, 36]          --
│    │    └─Conv2d: 3-195                [1, 128, 36, 36]          65,536
│    │    └─BatchNorm2d: 3-196           [1, 128, 36, 36]          256
│    │    └─ReLU: 3-197                  [1, 128, 36, 36]          --
│    │    └─Conv2d: 3-198                [1, 128, 36, 36]          147,456
│    │    └─BatchNorm2d: 3-199           [1, 128, 36, 36]          256
│    │    └─Identity: 3-200              [1, 128, 36, 36]          --
│    │    └─ReLU: 3-201                  [1, 128, 36, 36]          --
│    │    └─Identity: 3-202              [1, 128, 36, 36]          --
│    │    └─Conv2d: 3-203                [1, 512, 36, 36]          65,536
│    │    └─BatchNorm2d: 3-204           [1, 512, 36, 36]          1,024
│    │    └─SEModule: 3-205              [1, 512, 36, 36]          131,712
│    │    └─ReLU: 3-206                  [1, 512, 36, 36]          --
│    └─Bottleneck: 2-28                  [1, 512, 36, 36]          --
│    │    └─Conv2d: 3-207                [1, 128, 36, 36]          65,536
│    │    └─BatchNorm2d: 3-208           [1, 128, 36, 36]          256
│    │    └─ReLU: 3-209                  [1, 128, 36, 36]          --
│    │    └─Conv2d: 3-210                [1, 128, 36, 36]          147,456
│    │    └─BatchNorm2d: 3-211           [1, 128, 36, 36]          256
│    │    └─Identity: 3-212              [1, 128, 36, 36]          --
│    │    └─ReLU: 3-213                  [1, 128, 36, 36]          --
│    │    └─Identity: 3-214              [1, 128, 36, 36]          --
│    │    └─Conv2d: 3-215                [1, 512, 36, 36]          65,536
│    │    └─BatchNorm2d: 3-216           [1, 512, 36, 36]          1,024
│    │    └─SEModule: 3-217              [1, 512, 36, 36]          131,712
│    │    └─ReLU: 3-218                  [1, 512, 36, 36]          --
│    └─Bottleneck: 2-29                  [1, 512, 36, 36]          --
│    │    └─Conv2d: 3-219                [1, 128, 36, 36]          65,536
│    │    └─BatchNorm2d: 3-220           [1, 128, 36, 36]          256
│    │    └─ReLU: 3-221                  [1, 128, 36, 36]          --
│    │    └─Conv2d: 3-222                [1, 128, 36, 36]          147,456
│    │    └─BatchNorm2d: 3-223           [1, 128, 36, 36]          256
│    │    └─Identity: 3-224              [1, 128, 36, 36]          --
│    │    └─ReLU: 3-225                  [1, 128, 36, 36]          --
│    │    └─Identity: 3-226              [1, 128, 36, 36]          --
│    │    └─Conv2d: 3-227                [1, 512, 36, 36]          65,536
│    │    └─BatchNorm2d: 3-228           [1, 512, 36, 36]          1,024
│    │    └─SEModule: 3-229              [1, 512, 36, 36]          131,712
│    │    └─ReLU: 3-230                  [1, 512, 36, 36]          --
│    └─Bottleneck: 2-30                  [1, 512, 36, 36]          --
│    │    └─Conv2d: 3-231                [1, 128, 36, 36]          65,536
│    │    └─BatchNorm2d: 3-232           [1, 128, 36, 36]          256
│    │    └─ReLU: 3-233                  [1, 128, 36, 36]          --
│    │    └─Conv2d: 3-234                [1, 128, 36, 36]          147,456
│    │    └─BatchNorm2d: 3-235           [1, 128, 36, 36]          256
│    │    └─Identity: 3-236              [1, 128, 36, 36]          --
│    │    └─ReLU: 3-237                  [1, 128, 36, 36]          --
│    │    └─Identity: 3-238              [1, 128, 36, 36]          --
│    │    └─Conv2d: 3-239                [1, 512, 36, 36]          65,536
│    │    └─BatchNorm2d: 3-240           [1, 512, 36, 36]          1,024
│    │    └─SEModule: 3-241              [1, 512, 36, 36]          131,712
│    │    └─ReLU: 3-242                  [1, 512, 36, 36]          --
│    └─Bottleneck: 2-31                  [1, 512, 36, 36]          --
│    │    └─Conv2d: 3-243                [1, 128, 36, 36]          65,536
│    │    └─BatchNorm2d: 3-244           [1, 128, 36, 36]          256
│    │    └─ReLU: 3-245                  [1, 128, 36, 36]          --
│    │    └─Conv2d: 3-246                [1, 128, 36, 36]          147,456
│    │    └─BatchNorm2d: 3-247           [1, 128, 36, 36]          256
│    │    └─Identity: 3-248              [1, 128, 36, 36]          --
│    │    └─ReLU: 3-249                  [1, 128, 36, 36]          --
│    │    └─Identity: 3-250              [1, 128, 36, 36]          --
│    │    └─Conv2d: 3-251                [1, 512, 36, 36]          65,536
│    │    └─BatchNorm2d: 3-252           [1, 512, 36, 36]          1,024
│    │    └─SEModule: 3-253              [1, 512, 36, 36]          131,712
│    │    └─ReLU: 3-254                  [1, 512, 36, 36]          --
│    └─Bottleneck: 2-32                  [1, 512, 36, 36]          --
│    │    └─Conv2d: 3-255                [1, 128, 36, 36]          65,536
│    │    └─BatchNorm2d: 3-256           [1, 128, 36, 36]          256
│    │    └─ReLU: 3-257                  [1, 128, 36, 36]          --
│    │    └─Conv2d: 3-258                [1, 128, 36, 36]          147,456
│    │    └─BatchNorm2d: 3-259           [1, 128, 36, 36]          256
│    │    └─Identity: 3-260              [1, 128, 36, 36]          --
│    │    └─ReLU: 3-261                  [1, 128, 36, 36]          --
│    │    └─Identity: 3-262              [1, 128, 36, 36]          --
│    │    └─Conv2d: 3-263                [1, 512, 36, 36]          65,536
│    │    └─BatchNorm2d: 3-264           [1, 512, 36, 36]          1,024
│    │    └─SEModule: 3-265              [1, 512, 36, 36]          131,712
│    │    └─ReLU: 3-266                  [1, 512, 36, 36]          --
│    └─Bottleneck: 2-33                  [1, 512, 36, 36]          --
│    │    └─Conv2d: 3-267                [1, 128, 36, 36]          65,536
│    │    └─BatchNorm2d: 3-268           [1, 128, 36, 36]          256
│    │    └─ReLU: 3-269                  [1, 128, 36, 36]          --
│    │    └─Conv2d: 3-270                [1, 128, 36, 36]          147,456
│    │    └─BatchNorm2d: 3-271           [1, 128, 36, 36]          256
│    │    └─Identity: 3-272              [1, 128, 36, 36]          --
│    │    └─ReLU: 3-273                  [1, 128, 36, 36]          --
│    │    └─Identity: 3-274              [1, 128, 36, 36]          --
│    │    └─Conv2d: 3-275                [1, 512, 36, 36]          65,536
│    │    └─BatchNorm2d: 3-276           [1, 512, 36, 36]          1,024
│    │    └─SEModule: 3-277              [1, 512, 36, 36]          131,712
│    │    └─ReLU: 3-278                  [1, 512, 36, 36]          --
│    └─Bottleneck: 2-34                  [1, 512, 36, 36]          --
│    │    └─Conv2d: 3-279                [1, 128, 36, 36]          65,536
│    │    └─BatchNorm2d: 3-280           [1, 128, 36, 36]          256
│    │    └─ReLU: 3-281                  [1, 128, 36, 36]          --
│    │    └─Conv2d: 3-282                [1, 128, 36, 36]          147,456
│    │    └─BatchNorm2d: 3-283           [1, 128, 36, 36]          256
│    │    └─Identity: 3-284              [1, 128, 36, 36]          --
│    │    └─ReLU: 3-285                  [1, 128, 36, 36]          --
│    │    └─Identity: 3-286              [1, 128, 36, 36]          --
│    │    └─Conv2d: 3-287                [1, 512, 36, 36]          65,536
│    │    └─BatchNorm2d: 3-288           [1, 512, 36, 36]          1,024
│    │    └─SEModule: 3-289              [1, 512, 36, 36]          131,712
│    │    └─ReLU: 3-290                  [1, 512, 36, 36]          --
│    └─Bottleneck: 2-35                  [1, 512, 36, 36]          --
│    │    └─Conv2d: 3-291                [1, 128, 36, 36]          65,536
│    │    └─BatchNorm2d: 3-292           [1, 128, 36, 36]          256
│    │    └─ReLU: 3-293                  [1, 128, 36, 36]          --
│    │    └─Conv2d: 3-294                [1, 128, 36, 36]          147,456
│    │    └─BatchNorm2d: 3-295           [1, 128, 36, 36]          256
│    │    └─Identity: 3-296              [1, 128, 36, 36]          --
│    │    └─ReLU: 3-297                  [1, 128, 36, 36]          --
│    │    └─Identity: 3-298              [1, 128, 36, 36]          --
│    │    └─Conv2d: 3-299                [1, 512, 36, 36]          65,536
│    │    └─BatchNorm2d: 3-300           [1, 512, 36, 36]          1,024
│    │    └─SEModule: 3-301              [1, 512, 36, 36]          131,712
│    │    └─ReLU: 3-302                  [1, 512, 36, 36]          --
│    └─Bottleneck: 2-36                  [1, 512, 36, 36]          --
│    │    └─Conv2d: 3-303                [1, 128, 36, 36]          65,536
│    │    └─BatchNorm2d: 3-304           [1, 128, 36, 36]          256
│    │    └─ReLU: 3-305                  [1, 128, 36, 36]          --
│    │    └─Conv2d: 3-306                [1, 128, 36, 36]          147,456
│    │    └─BatchNorm2d: 3-307           [1, 128, 36, 36]          256
│    │    └─Identity: 3-308              [1, 128, 36, 36]          --
│    │    └─ReLU: 3-309                  [1, 128, 36, 36]          --
│    │    └─Identity: 3-310              [1, 128, 36, 36]          --
│    │    └─Conv2d: 3-311                [1, 512, 36, 36]          65,536
│    │    └─BatchNorm2d: 3-312           [1, 512, 36, 36]          1,024
│    │    └─SEModule: 3-313              [1, 512, 36, 36]          131,712
│    │    └─ReLU: 3-314                  [1, 512, 36, 36]          --
│    └─Bottleneck: 2-37                  [1, 512, 36, 36]          --
│    │    └─Conv2d: 3-315                [1, 128, 36, 36]          65,536
│    │    └─BatchNorm2d: 3-316           [1, 128, 36, 36]          256
│    │    └─ReLU: 3-317                  [1, 128, 36, 36]          --
│    │    └─Conv2d: 3-318                [1, 128, 36, 36]          147,456
│    │    └─BatchNorm2d: 3-319           [1, 128, 36, 36]          256
│    │    └─Identity: 3-320              [1, 128, 36, 36]          --
│    │    └─ReLU: 3-321                  [1, 128, 36, 36]          --
│    │    └─Identity: 3-322              [1, 128, 36, 36]          --
│    │    └─Conv2d: 3-323                [1, 512, 36, 36]          65,536
│    │    └─BatchNorm2d: 3-324           [1, 512, 36, 36]          1,024
│    │    └─SEModule: 3-325              [1, 512, 36, 36]          131,712
│    │    └─ReLU: 3-326                  [1, 512, 36, 36]          --
│    └─Bottleneck: 2-38                  [1, 512, 36, 36]          --
│    │    └─Conv2d: 3-327                [1, 128, 36, 36]          65,536
│    │    └─BatchNorm2d: 3-328           [1, 128, 36, 36]          256
│    │    └─ReLU: 3-329                  [1, 128, 36, 36]          --
│    │    └─Conv2d: 3-330                [1, 128, 36, 36]          147,456
│    │    └─BatchNorm2d: 3-331           [1, 128, 36, 36]          256
│    │    └─Identity: 3-332              [1, 128, 36, 36]          --
│    │    └─ReLU: 3-333                  [1, 128, 36, 36]          --
│    │    └─Identity: 3-334              [1, 128, 36, 36]          --
│    │    └─Conv2d: 3-335                [1, 512, 36, 36]          65,536
│    │    └─BatchNorm2d: 3-336           [1, 512, 36, 36]          1,024
│    │    └─SEModule: 3-337              [1, 512, 36, 36]          131,712
│    │    └─ReLU: 3-338                  [1, 512, 36, 36]          --
│    └─Bottleneck: 2-39                  [1, 512, 36, 36]          --
│    │    └─Conv2d: 3-339                [1, 128, 36, 36]          65,536
│    │    └─BatchNorm2d: 3-340           [1, 128, 36, 36]          256
│    │    └─ReLU: 3-341                  [1, 128, 36, 36]          --
│    │    └─Conv2d: 3-342                [1, 128, 36, 36]          147,456
│    │    └─BatchNorm2d: 3-343           [1, 128, 36, 36]          256
│    │    └─Identity: 3-344              [1, 128, 36, 36]          --
│    │    └─ReLU: 3-345                  [1, 128, 36, 36]          --
│    │    └─Identity: 3-346              [1, 128, 36, 36]          --
│    │    └─Conv2d: 3-347                [1, 512, 36, 36]          65,536
│    │    └─BatchNorm2d: 3-348           [1, 512, 36, 36]          1,024
│    │    └─SEModule: 3-349              [1, 512, 36, 36]          131,712
│    │    └─ReLU: 3-350                  [1, 512, 36, 36]          --
│    └─Bottleneck: 2-40                  [1, 512, 36, 36]          --
│    │    └─Conv2d: 3-351                [1, 128, 36, 36]          65,536
│    │    └─BatchNorm2d: 3-352           [1, 128, 36, 36]          256
│    │    └─ReLU: 3-353                  [1, 128, 36, 36]          --
│    │    └─Conv2d: 3-354                [1, 128, 36, 36]          147,456
│    │    └─BatchNorm2d: 3-355           [1, 128, 36, 36]          256
│    │    └─Identity: 3-356              [1, 128, 36, 36]          --
│    │    └─ReLU: 3-357                  [1, 128, 36, 36]          --
│    │    └─Identity: 3-358              [1, 128, 36, 36]          --
│    │    └─Conv2d: 3-359                [1, 512, 36, 36]          65,536
│    │    └─BatchNorm2d: 3-360           [1, 512, 36, 36]          1,024
│    │    └─SEModule: 3-361              [1, 512, 36, 36]          131,712
│    │    └─ReLU: 3-362                  [1, 512, 36, 36]          --
│    └─Bottleneck: 2-41                  [1, 512, 36, 36]          --
│    │    └─Conv2d: 3-363                [1, 128, 36, 36]          65,536
│    │    └─BatchNorm2d: 3-364           [1, 128, 36, 36]          256
│    │    └─ReLU: 3-365                  [1, 128, 36, 36]          --
│    │    └─Conv2d: 3-366                [1, 128, 36, 36]          147,456
│    │    └─BatchNorm2d: 3-367           [1, 128, 36, 36]          256
│    │    └─Identity: 3-368              [1, 128, 36, 36]          --
│    │    └─ReLU: 3-369                  [1, 128, 36, 36]          --
│    │    └─Identity: 3-370              [1, 128, 36, 36]          --
│    │    └─Conv2d: 3-371                [1, 512, 36, 36]          65,536
│    │    └─BatchNorm2d: 3-372           [1, 512, 36, 36]          1,024
│    │    └─SEModule: 3-373              [1, 512, 36, 36]          131,712
│    │    └─ReLU: 3-374                  [1, 512, 36, 36]          --
│    └─Bottleneck: 2-42                  [1, 512, 36, 36]          --
│    │    └─Conv2d: 3-375                [1, 128, 36, 36]          65,536
│    │    └─BatchNorm2d: 3-376           [1, 128, 36, 36]          256
│    │    └─ReLU: 3-377                  [1, 128, 36, 36]          --
│    │    └─Conv2d: 3-378                [1, 128, 36, 36]          147,456
│    │    └─BatchNorm2d: 3-379           [1, 128, 36, 36]          256
│    │    └─Identity: 3-380              [1, 128, 36, 36]          --
│    │    └─ReLU: 3-381                  [1, 128, 36, 36]          --
│    │    └─Identity: 3-382              [1, 128, 36, 36]          --
│    │    └─Conv2d: 3-383                [1, 512, 36, 36]          65,536
│    │    └─BatchNorm2d: 3-384           [1, 512, 36, 36]          1,024
│    │    └─SEModule: 3-385              [1, 512, 36, 36]          131,712
│    │    └─ReLU: 3-386                  [1, 512, 36, 36]          --
│    └─Bottleneck: 2-43                  [1, 512, 36, 36]          --
│    │    └─Conv2d: 3-387                [1, 128, 36, 36]          65,536
│    │    └─BatchNorm2d: 3-388           [1, 128, 36, 36]          256
│    │    └─ReLU: 3-389                  [1, 128, 36, 36]          --
│    │    └─Conv2d: 3-390                [1, 128, 36, 36]          147,456
│    │    └─BatchNorm2d: 3-391           [1, 128, 36, 36]          256
│    │    └─Identity: 3-392              [1, 128, 36, 36]          --
│    │    └─ReLU: 3-393                  [1, 128, 36, 36]          --
│    │    └─Identity: 3-394              [1, 128, 36, 36]          --
│    │    └─Conv2d: 3-395                [1, 512, 36, 36]          65,536
│    │    └─BatchNorm2d: 3-396           [1, 512, 36, 36]          1,024
│    │    └─SEModule: 3-397              [1, 512, 36, 36]          131,712
│    │    └─ReLU: 3-398                  [1, 512, 36, 36]          --
│    └─Bottleneck: 2-44                  [1, 512, 36, 36]          --
│    │    └─Conv2d: 3-399                [1, 128, 36, 36]          65,536
│    │    └─BatchNorm2d: 3-400           [1, 128, 36, 36]          256
│    │    └─ReLU: 3-401                  [1, 128, 36, 36]          --
│    │    └─Conv2d: 3-402                [1, 128, 36, 36]          147,456
│    │    └─BatchNorm2d: 3-403           [1, 128, 36, 36]          256
│    │    └─Identity: 3-404              [1, 128, 36, 36]          --
│    │    └─ReLU: 3-405                  [1, 128, 36, 36]          --
│    │    └─Identity: 3-406              [1, 128, 36, 36]          --
│    │    └─Conv2d: 3-407                [1, 512, 36, 36]          65,536
│    │    └─BatchNorm2d: 3-408           [1, 512, 36, 36]          1,024
│    │    └─SEModule: 3-409              [1, 512, 36, 36]          131,712
│    │    └─ReLU: 3-410                  [1, 512, 36, 36]          --
│    └─Bottleneck: 2-45                  [1, 512, 36, 36]          --
│    │    └─Conv2d: 3-411                [1, 128, 36, 36]          65,536
│    │    └─BatchNorm2d: 3-412           [1, 128, 36, 36]          256
│    │    └─ReLU: 3-413                  [1, 128, 36, 36]          --
│    │    └─Conv2d: 3-414                [1, 128, 36, 36]          147,456
│    │    └─BatchNorm2d: 3-415           [1, 128, 36, 36]          256
│    │    └─Identity: 3-416              [1, 128, 36, 36]          --
│    │    └─ReLU: 3-417                  [1, 128, 36, 36]          --
│    │    └─Identity: 3-418              [1, 128, 36, 36]          --
│    │    └─Conv2d: 3-419                [1, 512, 36, 36]          65,536
│    │    └─BatchNorm2d: 3-420           [1, 512, 36, 36]          1,024
│    │    └─SEModule: 3-421              [1, 512, 36, 36]          131,712
│    │    └─ReLU: 3-422                  [1, 512, 36, 36]          --
│    └─Bottleneck: 2-46                  [1, 512, 36, 36]          --
│    │    └─Conv2d: 3-423                [1, 128, 36, 36]          65,536
│    │    └─BatchNorm2d: 3-424           [1, 128, 36, 36]          256
│    │    └─ReLU: 3-425                  [1, 128, 36, 36]          --
│    │    └─Conv2d: 3-426                [1, 128, 36, 36]          147,456
│    │    └─BatchNorm2d: 3-427           [1, 128, 36, 36]          256
│    │    └─Identity: 3-428              [1, 128, 36, 36]          --
│    │    └─ReLU: 3-429                  [1, 128, 36, 36]          --
│    │    └─Identity: 3-430              [1, 128, 36, 36]          --
│    │    └─Conv2d: 3-431                [1, 512, 36, 36]          65,536
│    │    └─BatchNorm2d: 3-432           [1, 512, 36, 36]          1,024
│    │    └─SEModule: 3-433              [1, 512, 36, 36]          131,712
│    │    └─ReLU: 3-434                  [1, 512, 36, 36]          --
│    └─Bottleneck: 2-47                  [1, 512, 36, 36]          --
│    │    └─Conv2d: 3-435                [1, 128, 36, 36]          65,536
│    │    └─BatchNorm2d: 3-436           [1, 128, 36, 36]          256
│    │    └─ReLU: 3-437                  [1, 128, 36, 36]          --
│    │    └─Conv2d: 3-438                [1, 128, 36, 36]          147,456
│    │    └─BatchNorm2d: 3-439           [1, 128, 36, 36]          256
│    │    └─Identity: 3-440              [1, 128, 36, 36]          --
│    │    └─ReLU: 3-441                  [1, 128, 36, 36]          --
│    │    └─Identity: 3-442              [1, 128, 36, 36]          --
│    │    └─Conv2d: 3-443                [1, 512, 36, 36]          65,536
│    │    └─BatchNorm2d: 3-444           [1, 512, 36, 36]          1,024
│    │    └─SEModule: 3-445              [1, 512, 36, 36]          131,712
│    │    └─ReLU: 3-446                  [1, 512, 36, 36]          --
│    └─Bottleneck: 2-48                  [1, 512, 36, 36]          --
│    │    └─Conv2d: 3-447                [1, 128, 36, 36]          65,536
│    │    └─BatchNorm2d: 3-448           [1, 128, 36, 36]          256
│    │    └─ReLU: 3-449                  [1, 128, 36, 36]          --
│    │    └─Conv2d: 3-450                [1, 128, 36, 36]          147,456
│    │    └─BatchNorm2d: 3-451           [1, 128, 36, 36]          256
│    │    └─Identity: 3-452              [1, 128, 36, 36]          --
│    │    └─ReLU: 3-453                  [1, 128, 36, 36]          --
│    │    └─Identity: 3-454              [1, 128, 36, 36]          --
│    │    └─Conv2d: 3-455                [1, 512, 36, 36]          65,536
│    │    └─BatchNorm2d: 3-456           [1, 512, 36, 36]          1,024
│    │    └─SEModule: 3-457              [1, 512, 36, 36]          131,712
│    │    └─ReLU: 3-458                  [1, 512, 36, 36]          --
│    └─Bottleneck: 2-49                  [1, 512, 36, 36]          --
│    │    └─Conv2d: 3-459                [1, 128, 36, 36]          65,536
│    │    └─BatchNorm2d: 3-460           [1, 128, 36, 36]          256
│    │    └─ReLU: 3-461                  [1, 128, 36, 36]          --
│    │    └─Conv2d: 3-462                [1, 128, 36, 36]          147,456
│    │    └─BatchNorm2d: 3-463           [1, 128, 36, 36]          256
│    │    └─Identity: 3-464              [1, 128, 36, 36]          --
│    │    └─ReLU: 3-465                  [1, 128, 36, 36]          --
│    │    └─Identity: 3-466              [1, 128, 36, 36]          --
│    │    └─Conv2d: 3-467                [1, 512, 36, 36]          65,536
│    │    └─BatchNorm2d: 3-468           [1, 512, 36, 36]          1,024
│    │    └─SEModule: 3-469              [1, 512, 36, 36]          131,712
│    │    └─ReLU: 3-470                  [1, 512, 36, 36]          --
│    └─Bottleneck: 2-50                  [1, 512, 36, 36]          --
│    │    └─Conv2d: 3-471                [1, 128, 36, 36]          65,536
│    │    └─BatchNorm2d: 3-472           [1, 128, 36, 36]          256
│    │    └─ReLU: 3-473                  [1, 128, 36, 36]          --
│    │    └─Conv2d: 3-474                [1, 128, 36, 36]          147,456
│    │    └─BatchNorm2d: 3-475           [1, 128, 36, 36]          256
│    │    └─Identity: 3-476              [1, 128, 36, 36]          --
│    │    └─ReLU: 3-477                  [1, 128, 36, 36]          --
│    │    └─Identity: 3-478              [1, 128, 36, 36]          --
│    │    └─Conv2d: 3-479                [1, 512, 36, 36]          65,536
│    │    └─BatchNorm2d: 3-480           [1, 512, 36, 36]          1,024
│    │    └─SEModule: 3-481              [1, 512, 36, 36]          131,712
│    │    └─ReLU: 3-482                  [1, 512, 36, 36]          --
├─Sequential: 1-7                        [1, 1024, 18, 18]         --
│    └─Bottleneck: 2-51                  [1, 1024, 18, 18]         --
│    │    └─Conv2d: 3-483                [1, 256, 36, 36]          131,072
│    │    └─BatchNorm2d: 3-484           [1, 256, 36, 36]          512
│    │    └─ReLU: 3-485                  [1, 256, 36, 36]          --
│    │    └─Conv2d: 3-486                [1, 256, 18, 18]          589,824
│    │    └─BatchNorm2d: 3-487           [1, 256, 18, 18]          512
│    │    └─Identity: 3-488              [1, 256, 18, 18]          --
│    │    └─ReLU: 3-489                  [1, 256, 18, 18]          --
│    │    └─Identity: 3-490              [1, 256, 18, 18]          --
│    │    └─Conv2d: 3-491                [1, 1024, 18, 18]         262,144
│    │    └─BatchNorm2d: 3-492           [1, 1024, 18, 18]         2,048
│    │    └─SEModule: 3-493              [1, 1024, 18, 18]         525,568
│    │    └─Sequential: 3-494            [1, 1024, 18, 18]         526,336
│    │    └─ReLU: 3-495                  [1, 1024, 18, 18]         --
│    └─Bottleneck: 2-52                  [1, 1024, 18, 18]         --
│    │    └─Conv2d: 3-496                [1, 256, 18, 18]          262,144
│    │    └─BatchNorm2d: 3-497           [1, 256, 18, 18]          512
│    │    └─ReLU: 3-498                  [1, 256, 18, 18]          --
│    │    └─Conv2d: 3-499                [1, 256, 18, 18]          589,824
│    │    └─BatchNorm2d: 3-500           [1, 256, 18, 18]          512
│    │    └─Identity: 3-501              [1, 256, 18, 18]          --
│    │    └─ReLU: 3-502                  [1, 256, 18, 18]          --
│    │    └─Identity: 3-503              [1, 256, 18, 18]          --
│    │    └─Conv2d: 3-504                [1, 1024, 18, 18]         262,144
│    │    └─BatchNorm2d: 3-505           [1, 1024, 18, 18]         2,048
│    │    └─SEModule: 3-506              [1, 1024, 18, 18]         525,568
│    │    └─ReLU: 3-507                  [1, 1024, 18, 18]         --
│    └─Bottleneck: 2-53                  [1, 1024, 18, 18]         --
│    │    └─Conv2d: 3-508                [1, 256, 18, 18]          262,144
│    │    └─BatchNorm2d: 3-509           [1, 256, 18, 18]          512
│    │    └─ReLU: 3-510                  [1, 256, 18, 18]          --
│    │    └─Conv2d: 3-511                [1, 256, 18, 18]          589,824
│    │    └─BatchNorm2d: 3-512           [1, 256, 18, 18]          512
│    │    └─Identity: 3-513              [1, 256, 18, 18]          --
│    │    └─ReLU: 3-514                  [1, 256, 18, 18]          --
│    │    └─Identity: 3-515              [1, 256, 18, 18]          --
│    │    └─Conv2d: 3-516                [1, 1024, 18, 18]         262,144
│    │    └─BatchNorm2d: 3-517           [1, 1024, 18, 18]         2,048
│    │    └─SEModule: 3-518              [1, 1024, 18, 18]         525,568
│    │    └─ReLU: 3-519                  [1, 1024, 18, 18]         --
│    └─Bottleneck: 2-54                  [1, 1024, 18, 18]         --
│    │    └─Conv2d: 3-520                [1, 256, 18, 18]          262,144
│    │    └─BatchNorm2d: 3-521           [1, 256, 18, 18]          512
│    │    └─ReLU: 3-522                  [1, 256, 18, 18]          --
│    │    └─Conv2d: 3-523                [1, 256, 18, 18]          589,824
│    │    └─BatchNorm2d: 3-524           [1, 256, 18, 18]          512
│    │    └─Identity: 3-525              [1, 256, 18, 18]          --
│    │    └─ReLU: 3-526                  [1, 256, 18, 18]          --
│    │    └─Identity: 3-527              [1, 256, 18, 18]          --
│    │    └─Conv2d: 3-528                [1, 1024, 18, 18]         262,144
│    │    └─BatchNorm2d: 3-529           [1, 1024, 18, 18]         2,048
│    │    └─SEModule: 3-530              [1, 1024, 18, 18]         525,568
│    │    └─ReLU: 3-531                  [1, 1024, 18, 18]         --
│    └─Bottleneck: 2-55                  [1, 1024, 18, 18]         --
│    │    └─Conv2d: 3-532                [1, 256, 18, 18]          262,144
│    │    └─BatchNorm2d: 3-533           [1, 256, 18, 18]          512
│    │    └─ReLU: 3-534                  [1, 256, 18, 18]          --
│    │    └─Conv2d: 3-535                [1, 256, 18, 18]          589,824
│    │    └─BatchNorm2d: 3-536           [1, 256, 18, 18]          512
│    │    └─Identity: 3-537              [1, 256, 18, 18]          --
│    │    └─ReLU: 3-538                  [1, 256, 18, 18]          --
│    │    └─Identity: 3-539              [1, 256, 18, 18]          --
│    │    └─Conv2d: 3-540                [1, 1024, 18, 18]         262,144
│    │    └─BatchNorm2d: 3-541           [1, 1024, 18, 18]         2,048
│    │    └─SEModule: 3-542              [1, 1024, 18, 18]         525,568
│    │    └─ReLU: 3-543                  [1, 1024, 18, 18]         --
│    └─Bottleneck: 2-56                  [1, 1024, 18, 18]         --
│    │    └─Conv2d: 3-544                [1, 256, 18, 18]          262,144
│    │    └─BatchNorm2d: 3-545           [1, 256, 18, 18]          512
│    │    └─ReLU: 3-546                  [1, 256, 18, 18]          --
│    │    └─Conv2d: 3-547                [1, 256, 18, 18]          589,824
│    │    └─BatchNorm2d: 3-548           [1, 256, 18, 18]          512
│    │    └─Identity: 3-549              [1, 256, 18, 18]          --
│    │    └─ReLU: 3-550                  [1, 256, 18, 18]          --
│    │    └─Identity: 3-551              [1, 256, 18, 18]          --
│    │    └─Conv2d: 3-552                [1, 1024, 18, 18]         262,144
│    │    └─BatchNorm2d: 3-553           [1, 1024, 18, 18]         2,048
│    │    └─SEModule: 3-554              [1, 1024, 18, 18]         525,568
│    │    └─ReLU: 3-555                  [1, 1024, 18, 18]         --
│    └─Bottleneck: 2-57                  [1, 1024, 18, 18]         --
│    │    └─Conv2d: 3-556                [1, 256, 18, 18]          262,144
│    │    └─BatchNorm2d: 3-557           [1, 256, 18, 18]          512
│    │    └─ReLU: 3-558                  [1, 256, 18, 18]          --
│    │    └─Conv2d: 3-559                [1, 256, 18, 18]          589,824
│    │    └─BatchNorm2d: 3-560           [1, 256, 18, 18]          512
│    │    └─Identity: 3-561              [1, 256, 18, 18]          --
│    │    └─ReLU: 3-562                  [1, 256, 18, 18]          --
│    │    └─Identity: 3-563              [1, 256, 18, 18]          --
│    │    └─Conv2d: 3-564                [1, 1024, 18, 18]         262,144
│    │    └─BatchNorm2d: 3-565           [1, 1024, 18, 18]         2,048
│    │    └─SEModule: 3-566              [1, 1024, 18, 18]         525,568
│    │    └─ReLU: 3-567                  [1, 1024, 18, 18]         --
│    └─Bottleneck: 2-58                  [1, 1024, 18, 18]         --
│    │    └─Conv2d: 3-568                [1, 256, 18, 18]          262,144
│    │    └─BatchNorm2d: 3-569           [1, 256, 18, 18]          512
│    │    └─ReLU: 3-570                  [1, 256, 18, 18]          --
│    │    └─Conv2d: 3-571                [1, 256, 18, 18]          589,824
│    │    └─BatchNorm2d: 3-572           [1, 256, 18, 18]          512
│    │    └─Identity: 3-573              [1, 256, 18, 18]          --
│    │    └─ReLU: 3-574                  [1, 256, 18, 18]          --
│    │    └─Identity: 3-575              [1, 256, 18, 18]          --
│    │    └─Conv2d: 3-576                [1, 1024, 18, 18]         262,144
│    │    └─BatchNorm2d: 3-577           [1, 1024, 18, 18]         2,048
│    │    └─SEModule: 3-578              [1, 1024, 18, 18]         525,568
│    │    └─ReLU: 3-579                  [1, 1024, 18, 18]         --
│    └─Bottleneck: 2-59                  [1, 1024, 18, 18]         --
│    │    └─Conv2d: 3-580                [1, 256, 18, 18]          262,144
│    │    └─BatchNorm2d: 3-581           [1, 256, 18, 18]          512
│    │    └─ReLU: 3-582                  [1, 256, 18, 18]          --
│    │    └─Conv2d: 3-583                [1, 256, 18, 18]          589,824
│    │    └─BatchNorm2d: 3-584           [1, 256, 18, 18]          512
│    │    └─Identity: 3-585              [1, 256, 18, 18]          --
│    │    └─ReLU: 3-586                  [1, 256, 18, 18]          --
│    │    └─Identity: 3-587              [1, 256, 18, 18]          --
│    │    └─Conv2d: 3-588                [1, 1024, 18, 18]         262,144
│    │    └─BatchNorm2d: 3-589           [1, 1024, 18, 18]         2,048
│    │    └─SEModule: 3-590              [1, 1024, 18, 18]         525,568
│    │    └─ReLU: 3-591                  [1, 1024, 18, 18]         --
│    └─Bottleneck: 2-60                  [1, 1024, 18, 18]         --
│    │    └─Conv2d: 3-592                [1, 256, 18, 18]          262,144
│    │    └─BatchNorm2d: 3-593           [1, 256, 18, 18]          512
│    │    └─ReLU: 3-594                  [1, 256, 18, 18]          --
│    │    └─Conv2d: 3-595                [1, 256, 18, 18]          589,824
│    │    └─BatchNorm2d: 3-596           [1, 256, 18, 18]          512
│    │    └─Identity: 3-597              [1, 256, 18, 18]          --
│    │    └─ReLU: 3-598                  [1, 256, 18, 18]          --
│    │    └─Identity: 3-599              [1, 256, 18, 18]          --
│    │    └─Conv2d: 3-600                [1, 1024, 18, 18]         262,144
│    │    └─BatchNorm2d: 3-601           [1, 1024, 18, 18]         2,048
│    │    └─SEModule: 3-602              [1, 1024, 18, 18]         525,568
│    │    └─ReLU: 3-603                  [1, 1024, 18, 18]         --
│    └─Bottleneck: 2-61                  [1, 1024, 18, 18]         --
│    │    └─Conv2d: 3-604                [1, 256, 18, 18]          262,144
│    │    └─BatchNorm2d: 3-605           [1, 256, 18, 18]          512
│    │    └─ReLU: 3-606                  [1, 256, 18, 18]          --
│    │    └─Conv2d: 3-607                [1, 256, 18, 18]          589,824
│    │    └─BatchNorm2d: 3-608           [1, 256, 18, 18]          512
│    │    └─Identity: 3-609              [1, 256, 18, 18]          --
│    │    └─ReLU: 3-610                  [1, 256, 18, 18]          --
│    │    └─Identity: 3-611              [1, 256, 18, 18]          --
│    │    └─Conv2d: 3-612                [1, 1024, 18, 18]         262,144
│    │    └─BatchNorm2d: 3-613           [1, 1024, 18, 18]         2,048
│    │    └─SEModule: 3-614              [1, 1024, 18, 18]         525,568
│    │    └─ReLU: 3-615                  [1, 1024, 18, 18]         --
│    └─Bottleneck: 2-62                  [1, 1024, 18, 18]         --
│    │    └─Conv2d: 3-616                [1, 256, 18, 18]          262,144
│    │    └─BatchNorm2d: 3-617           [1, 256, 18, 18]          512
│    │    └─ReLU: 3-618                  [1, 256, 18, 18]          --
│    │    └─Conv2d: 3-619                [1, 256, 18, 18]          589,824
│    │    └─BatchNorm2d: 3-620           [1, 256, 18, 18]          512
│    │    └─Identity: 3-621              [1, 256, 18, 18]          --
│    │    └─ReLU: 3-622                  [1, 256, 18, 18]          --
│    │    └─Identity: 3-623              [1, 256, 18, 18]          --
│    │    └─Conv2d: 3-624                [1, 1024, 18, 18]         262,144
│    │    └─BatchNorm2d: 3-625           [1, 1024, 18, 18]         2,048
│    │    └─SEModule: 3-626              [1, 1024, 18, 18]         525,568
│    │    └─ReLU: 3-627                  [1, 1024, 18, 18]         --
│    └─Bottleneck: 2-63                  [1, 1024, 18, 18]         --
│    │    └─Conv2d: 3-628                [1, 256, 18, 18]          262,144
│    │    └─BatchNorm2d: 3-629           [1, 256, 18, 18]          512
│    │    └─ReLU: 3-630                  [1, 256, 18, 18]          --
│    │    └─Conv2d: 3-631                [1, 256, 18, 18]          589,824
│    │    └─BatchNorm2d: 3-632           [1, 256, 18, 18]          512
│    │    └─Identity: 3-633              [1, 256, 18, 18]          --
│    │    └─ReLU: 3-634                  [1, 256, 18, 18]          --
│    │    └─Identity: 3-635              [1, 256, 18, 18]          --
│    │    └─Conv2d: 3-636                [1, 1024, 18, 18]         262,144
│    │    └─BatchNorm2d: 3-637           [1, 1024, 18, 18]         2,048
│    │    └─SEModule: 3-638              [1, 1024, 18, 18]         525,568
│    │    └─ReLU: 3-639                  [1, 1024, 18, 18]         --
│    └─Bottleneck: 2-64                  [1, 1024, 18, 18]         --
│    │    └─Conv2d: 3-640                [1, 256, 18, 18]          262,144
│    │    └─BatchNorm2d: 3-641           [1, 256, 18, 18]          512
│    │    └─ReLU: 3-642                  [1, 256, 18, 18]          --
│    │    └─Conv2d: 3-643                [1, 256, 18, 18]          589,824
│    │    └─BatchNorm2d: 3-644           [1, 256, 18, 18]          512
│    │    └─Identity: 3-645              [1, 256, 18, 18]          --
│    │    └─ReLU: 3-646                  [1, 256, 18, 18]          --
│    │    └─Identity: 3-647              [1, 256, 18, 18]          --
│    │    └─Conv2d: 3-648                [1, 1024, 18, 18]         262,144
│    │    └─BatchNorm2d: 3-649           [1, 1024, 18, 18]         2,048
│    │    └─SEModule: 3-650              [1, 1024, 18, 18]         525,568
│    │    └─ReLU: 3-651                  [1, 1024, 18, 18]         --
│    └─Bottleneck: 2-65                  [1, 1024, 18, 18]         --
│    │    └─Conv2d: 3-652                [1, 256, 18, 18]          262,144
│    │    └─BatchNorm2d: 3-653           [1, 256, 18, 18]          512
│    │    └─ReLU: 3-654                  [1, 256, 18, 18]          --
│    │    └─Conv2d: 3-655                [1, 256, 18, 18]          589,824
│    │    └─BatchNorm2d: 3-656           [1, 256, 18, 18]          512
│    │    └─Identity: 3-657              [1, 256, 18, 18]          --
│    │    └─ReLU: 3-658                  [1, 256, 18, 18]          --
│    │    └─Identity: 3-659              [1, 256, 18, 18]          --
│    │    └─Conv2d: 3-660                [1, 1024, 18, 18]         262,144
│    │    └─BatchNorm2d: 3-661           [1, 1024, 18, 18]         2,048
│    │    └─SEModule: 3-662              [1, 1024, 18, 18]         525,568
│    │    └─ReLU: 3-663                  [1, 1024, 18, 18]         --
│    └─Bottleneck: 2-66                  [1, 1024, 18, 18]         --
│    │    └─Conv2d: 3-664                [1, 256, 18, 18]          262,144
│    │    └─BatchNorm2d: 3-665           [1, 256, 18, 18]          512
│    │    └─ReLU: 3-666                  [1, 256, 18, 18]          --
│    │    └─Conv2d: 3-667                [1, 256, 18, 18]          589,824
│    │    └─BatchNorm2d: 3-668           [1, 256, 18, 18]          512
│    │    └─Identity: 3-669              [1, 256, 18, 18]          --
│    │    └─ReLU: 3-670                  [1, 256, 18, 18]          --
│    │    └─Identity: 3-671              [1, 256, 18, 18]          --
│    │    └─Conv2d: 3-672                [1, 1024, 18, 18]         262,144
│    │    └─BatchNorm2d: 3-673           [1, 1024, 18, 18]         2,048
│    │    └─SEModule: 3-674              [1, 1024, 18, 18]         525,568
│    │    └─ReLU: 3-675                  [1, 1024, 18, 18]         --
│    └─Bottleneck: 2-67                  [1, 1024, 18, 18]         --
│    │    └─Conv2d: 3-676                [1, 256, 18, 18]          262,144
│    │    └─BatchNorm2d: 3-677           [1, 256, 18, 18]          512
│    │    └─ReLU: 3-678                  [1, 256, 18, 18]          --
│    │    └─Conv2d: 3-679                [1, 256, 18, 18]          589,824
│    │    └─BatchNorm2d: 3-680           [1, 256, 18, 18]          512
│    │    └─Identity: 3-681              [1, 256, 18, 18]          --
│    │    └─ReLU: 3-682                  [1, 256, 18, 18]          --
│    │    └─Identity: 3-683              [1, 256, 18, 18]          --
│    │    └─Conv2d: 3-684                [1, 1024, 18, 18]         262,144
│    │    └─BatchNorm2d: 3-685           [1, 1024, 18, 18]         2,048
│    │    └─SEModule: 3-686              [1, 1024, 18, 18]         525,568
│    │    └─ReLU: 3-687                  [1, 1024, 18, 18]         --
│    └─Bottleneck: 2-68                  [1, 1024, 18, 18]         --
│    │    └─Conv2d: 3-688                [1, 256, 18, 18]          262,144
│    │    └─BatchNorm2d: 3-689           [1, 256, 18, 18]          512
│    │    └─ReLU: 3-690                  [1, 256, 18, 18]          --
│    │    └─Conv2d: 3-691                [1, 256, 18, 18]          589,824
│    │    └─BatchNorm2d: 3-692           [1, 256, 18, 18]          512
│    │    └─Identity: 3-693              [1, 256, 18, 18]          --
│    │    └─ReLU: 3-694                  [1, 256, 18, 18]          --
│    │    └─Identity: 3-695              [1, 256, 18, 18]          --
│    │    └─Conv2d: 3-696                [1, 1024, 18, 18]         262,144
│    │    └─BatchNorm2d: 3-697           [1, 1024, 18, 18]         2,048
│    │    └─SEModule: 3-698              [1, 1024, 18, 18]         525,568
│    │    └─ReLU: 3-699                  [1, 1024, 18, 18]         --
│    └─Bottleneck: 2-69                  [1, 1024, 18, 18]         --
│    │    └─Conv2d: 3-700                [1, 256, 18, 18]          262,144
│    │    └─BatchNorm2d: 3-701           [1, 256, 18, 18]          512
│    │    └─ReLU: 3-702                  [1, 256, 18, 18]          --
│    │    └─Conv2d: 3-703                [1, 256, 18, 18]          589,824
│    │    └─BatchNorm2d: 3-704           [1, 256, 18, 18]          512
│    │    └─Identity: 3-705              [1, 256, 18, 18]          --
│    │    └─ReLU: 3-706                  [1, 256, 18, 18]          --
│    │    └─Identity: 3-707              [1, 256, 18, 18]          --
│    │    └─Conv2d: 3-708                [1, 1024, 18, 18]         262,144
│    │    └─BatchNorm2d: 3-709           [1, 1024, 18, 18]         2,048
│    │    └─SEModule: 3-710              [1, 1024, 18, 18]         525,568
│    │    └─ReLU: 3-711                  [1, 1024, 18, 18]         --
│    └─Bottleneck: 2-70                  [1, 1024, 18, 18]         --
│    │    └─Conv2d: 3-712                [1, 256, 18, 18]          262,144
│    │    └─BatchNorm2d: 3-713           [1, 256, 18, 18]          512
│    │    └─ReLU: 3-714                  [1, 256, 18, 18]          --
│    │    └─Conv2d: 3-715                [1, 256, 18, 18]          589,824
│    │    └─BatchNorm2d: 3-716           [1, 256, 18, 18]          512
│    │    └─Identity: 3-717              [1, 256, 18, 18]          --
│    │    └─ReLU: 3-718                  [1, 256, 18, 18]          --
│    │    └─Identity: 3-719              [1, 256, 18, 18]          --
│    │    └─Conv2d: 3-720                [1, 1024, 18, 18]         262,144
│    │    └─BatchNorm2d: 3-721           [1, 1024, 18, 18]         2,048
│    │    └─SEModule: 3-722              [1, 1024, 18, 18]         525,568
│    │    └─ReLU: 3-723                  [1, 1024, 18, 18]         --
│    └─Bottleneck: 2-71                  [1, 1024, 18, 18]         --
│    │    └─Conv2d: 3-724                [1, 256, 18, 18]          262,144
│    │    └─BatchNorm2d: 3-725           [1, 256, 18, 18]          512
│    │    └─ReLU: 3-726                  [1, 256, 18, 18]          --
│    │    └─Conv2d: 3-727                [1, 256, 18, 18]          589,824
│    │    └─BatchNorm2d: 3-728           [1, 256, 18, 18]          512
│    │    └─Identity: 3-729              [1, 256, 18, 18]          --
│    │    └─ReLU: 3-730                  [1, 256, 18, 18]          --
│    │    └─Identity: 3-731              [1, 256, 18, 18]          --
│    │    └─Conv2d: 3-732                [1, 1024, 18, 18]         262,144
│    │    └─BatchNorm2d: 3-733           [1, 1024, 18, 18]         2,048
│    │    └─SEModule: 3-734              [1, 1024, 18, 18]         525,568
│    │    └─ReLU: 3-735                  [1, 1024, 18, 18]         --
│    └─Bottleneck: 2-72                  [1, 1024, 18, 18]         --
│    │    └─Conv2d: 3-736                [1, 256, 18, 18]          262,144
│    │    └─BatchNorm2d: 3-737           [1, 256, 18, 18]          512
│    │    └─ReLU: 3-738                  [1, 256, 18, 18]          --
│    │    └─Conv2d: 3-739                [1, 256, 18, 18]          589,824
│    │    └─BatchNorm2d: 3-740           [1, 256, 18, 18]          512
│    │    └─Identity: 3-741              [1, 256, 18, 18]          --
│    │    └─ReLU: 3-742                  [1, 256, 18, 18]          --
│    │    └─Identity: 3-743              [1, 256, 18, 18]          --
│    │    └─Conv2d: 3-744                [1, 1024, 18, 18]         262,144
│    │    └─BatchNorm2d: 3-745           [1, 1024, 18, 18]         2,048
│    │    └─SEModule: 3-746              [1, 1024, 18, 18]         525,568
│    │    └─ReLU: 3-747                  [1, 1024, 18, 18]         --
│    └─Bottleneck: 2-73                  [1, 1024, 18, 18]         --
│    │    └─Conv2d: 3-748                [1, 256, 18, 18]          262,144
│    │    └─BatchNorm2d: 3-749           [1, 256, 18, 18]          512
│    │    └─ReLU: 3-750                  [1, 256, 18, 18]          --
│    │    └─Conv2d: 3-751                [1, 256, 18, 18]          589,824
│    │    └─BatchNorm2d: 3-752           [1, 256, 18, 18]          512
│    │    └─Identity: 3-753              [1, 256, 18, 18]          --
│    │    └─ReLU: 3-754                  [1, 256, 18, 18]          --
│    │    └─Identity: 3-755              [1, 256, 18, 18]          --
│    │    └─Conv2d: 3-756                [1, 1024, 18, 18]         262,144
│    │    └─BatchNorm2d: 3-757           [1, 1024, 18, 18]         2,048
│    │    └─SEModule: 3-758              [1, 1024, 18, 18]         525,568
│    │    └─ReLU: 3-759                  [1, 1024, 18, 18]         --
│    └─Bottleneck: 2-74                  [1, 1024, 18, 18]         --
│    │    └─Conv2d: 3-760                [1, 256, 18, 18]          262,144
│    │    └─BatchNorm2d: 3-761           [1, 256, 18, 18]          512
│    │    └─ReLU: 3-762                  [1, 256, 18, 18]          --
│    │    └─Conv2d: 3-763                [1, 256, 18, 18]          589,824
│    │    └─BatchNorm2d: 3-764           [1, 256, 18, 18]          512
│    │    └─Identity: 3-765              [1, 256, 18, 18]          --
│    │    └─ReLU: 3-766                  [1, 256, 18, 18]          --
│    │    └─Identity: 3-767              [1, 256, 18, 18]          --
│    │    └─Conv2d: 3-768                [1, 1024, 18, 18]         262,144
│    │    └─BatchNorm2d: 3-769           [1, 1024, 18, 18]         2,048
│    │    └─SEModule: 3-770              [1, 1024, 18, 18]         525,568
│    │    └─ReLU: 3-771                  [1, 1024, 18, 18]         --
│    └─Bottleneck: 2-75                  [1, 1024, 18, 18]         --
│    │    └─Conv2d: 3-772                [1, 256, 18, 18]          262,144
│    │    └─BatchNorm2d: 3-773           [1, 256, 18, 18]          512
│    │    └─ReLU: 3-774                  [1, 256, 18, 18]          --
│    │    └─Conv2d: 3-775                [1, 256, 18, 18]          589,824
│    │    └─BatchNorm2d: 3-776           [1, 256, 18, 18]          512
│    │    └─Identity: 3-777              [1, 256, 18, 18]          --
│    │    └─ReLU: 3-778                  [1, 256, 18, 18]          --
│    │    └─Identity: 3-779              [1, 256, 18, 18]          --
│    │    └─Conv2d: 3-780                [1, 1024, 18, 18]         262,144
│    │    └─BatchNorm2d: 3-781           [1, 1024, 18, 18]         2,048
│    │    └─SEModule: 3-782              [1, 1024, 18, 18]         525,568
│    │    └─ReLU: 3-783                  [1, 1024, 18, 18]         --
│    └─Bottleneck: 2-76                  [1, 1024, 18, 18]         --
│    │    └─Conv2d: 3-784                [1, 256, 18, 18]          262,144
│    │    └─BatchNorm2d: 3-785           [1, 256, 18, 18]          512
│    │    └─ReLU: 3-786                  [1, 256, 18, 18]          --
│    │    └─Conv2d: 3-787                [1, 256, 18, 18]          589,824
│    │    └─BatchNorm2d: 3-788           [1, 256, 18, 18]          512
│    │    └─Identity: 3-789              [1, 256, 18, 18]          --
│    │    └─ReLU: 3-790                  [1, 256, 18, 18]          --
│    │    └─Identity: 3-791              [1, 256, 18, 18]          --
│    │    └─Conv2d: 3-792                [1, 1024, 18, 18]         262,144
│    │    └─BatchNorm2d: 3-793           [1, 1024, 18, 18]         2,048
│    │    └─SEModule: 3-794              [1, 1024, 18, 18]         525,568
│    │    └─ReLU: 3-795                  [1, 1024, 18, 18]         --
│    └─Bottleneck: 2-77                  [1, 1024, 18, 18]         --
│    │    └─Conv2d: 3-796                [1, 256, 18, 18]          262,144
│    │    └─BatchNorm2d: 3-797           [1, 256, 18, 18]          512
│    │    └─ReLU: 3-798                  [1, 256, 18, 18]          --
│    │    └─Conv2d: 3-799                [1, 256, 18, 18]          589,824
│    │    └─BatchNorm2d: 3-800           [1, 256, 18, 18]          512
│    │    └─Identity: 3-801              [1, 256, 18, 18]          --
│    │    └─ReLU: 3-802                  [1, 256, 18, 18]          --
│    │    └─Identity: 3-803              [1, 256, 18, 18]          --
│    │    └─Conv2d: 3-804                [1, 1024, 18, 18]         262,144
│    │    └─BatchNorm2d: 3-805           [1, 1024, 18, 18]         2,048
│    │    └─SEModule: 3-806              [1, 1024, 18, 18]         525,568
│    │    └─ReLU: 3-807                  [1, 1024, 18, 18]         --
│    └─Bottleneck: 2-78                  [1, 1024, 18, 18]         --
│    │    └─Conv2d: 3-808                [1, 256, 18, 18]          262,144
│    │    └─BatchNorm2d: 3-809           [1, 256, 18, 18]          512
│    │    └─ReLU: 3-810                  [1, 256, 18, 18]          --
│    │    └─Conv2d: 3-811                [1, 256, 18, 18]          589,824
│    │    └─BatchNorm2d: 3-812           [1, 256, 18, 18]          512
│    │    └─Identity: 3-813              [1, 256, 18, 18]          --
│    │    └─ReLU: 3-814                  [1, 256, 18, 18]          --
│    │    └─Identity: 3-815              [1, 256, 18, 18]          --
│    │    └─Conv2d: 3-816                [1, 1024, 18, 18]         262,144
│    │    └─BatchNorm2d: 3-817           [1, 1024, 18, 18]         2,048
│    │    └─SEModule: 3-818              [1, 1024, 18, 18]         525,568
│    │    └─ReLU: 3-819                  [1, 1024, 18, 18]         --
│    └─Bottleneck: 2-79                  [1, 1024, 18, 18]         --
│    │    └─Conv2d: 3-820                [1, 256, 18, 18]          262,144
│    │    └─BatchNorm2d: 3-821           [1, 256, 18, 18]          512
│    │    └─ReLU: 3-822                  [1, 256, 18, 18]          --
│    │    └─Conv2d: 3-823                [1, 256, 18, 18]          589,824
│    │    └─BatchNorm2d: 3-824           [1, 256, 18, 18]          512
│    │    └─Identity: 3-825              [1, 256, 18, 18]          --
│    │    └─ReLU: 3-826                  [1, 256, 18, 18]          --
│    │    └─Identity: 3-827              [1, 256, 18, 18]          --
│    │    └─Conv2d: 3-828                [1, 1024, 18, 18]         262,144
│    │    └─BatchNorm2d: 3-829           [1, 1024, 18, 18]         2,048
│    │    └─SEModule: 3-830              [1, 1024, 18, 18]         525,568
│    │    └─ReLU: 3-831                  [1, 1024, 18, 18]         --
│    └─Bottleneck: 2-80                  [1, 1024, 18, 18]         --
│    │    └─Conv2d: 3-832                [1, 256, 18, 18]          262,144
│    │    └─BatchNorm2d: 3-833           [1, 256, 18, 18]          512
│    │    └─ReLU: 3-834                  [1, 256, 18, 18]          --
│    │    └─Conv2d: 3-835                [1, 256, 18, 18]          589,824
│    │    └─BatchNorm2d: 3-836           [1, 256, 18, 18]          512
│    │    └─Identity: 3-837              [1, 256, 18, 18]          --
│    │    └─ReLU: 3-838                  [1, 256, 18, 18]          --
│    │    └─Identity: 3-839              [1, 256, 18, 18]          --
│    │    └─Conv2d: 3-840                [1, 1024, 18, 18]         262,144
│    │    └─BatchNorm2d: 3-841           [1, 1024, 18, 18]         2,048
│    │    └─SEModule: 3-842              [1, 1024, 18, 18]         525,568
│    │    └─ReLU: 3-843                  [1, 1024, 18, 18]         --
│    └─Bottleneck: 2-81                  [1, 1024, 18, 18]         --
│    │    └─Conv2d: 3-844                [1, 256, 18, 18]          262,144
│    │    └─BatchNorm2d: 3-845           [1, 256, 18, 18]          512
│    │    └─ReLU: 3-846                  [1, 256, 18, 18]          --
│    │    └─Conv2d: 3-847                [1, 256, 18, 18]          589,824
│    │    └─BatchNorm2d: 3-848           [1, 256, 18, 18]          512
│    │    └─Identity: 3-849              [1, 256, 18, 18]          --
│    │    └─ReLU: 3-850                  [1, 256, 18, 18]          --
│    │    └─Identity: 3-851              [1, 256, 18, 18]          --
│    │    └─Conv2d: 3-852                [1, 1024, 18, 18]         262,144
│    │    └─BatchNorm2d: 3-853           [1, 1024, 18, 18]         2,048
│    │    └─SEModule: 3-854              [1, 1024, 18, 18]         525,568
│    │    └─ReLU: 3-855                  [1, 1024, 18, 18]         --
│    └─Bottleneck: 2-82                  [1, 1024, 18, 18]         --
│    │    └─Conv2d: 3-856                [1, 256, 18, 18]          262,144
│    │    └─BatchNorm2d: 3-857           [1, 256, 18, 18]          512
│    │    └─ReLU: 3-858                  [1, 256, 18, 18]          --
│    │    └─Conv2d: 3-859                [1, 256, 18, 18]          589,824
│    │    └─BatchNorm2d: 3-860           [1, 256, 18, 18]          512
│    │    └─Identity: 3-861              [1, 256, 18, 18]          --
│    │    └─ReLU: 3-862                  [1, 256, 18, 18]          --
│    │    └─Identity: 3-863              [1, 256, 18, 18]          --
│    │    └─Conv2d: 3-864                [1, 1024, 18, 18]         262,144
│    │    └─BatchNorm2d: 3-865           [1, 1024, 18, 18]         2,048
│    │    └─SEModule: 3-866              [1, 1024, 18, 18]         525,568
│    │    └─ReLU: 3-867                  [1, 1024, 18, 18]         --
│    └─Bottleneck: 2-83                  [1, 1024, 18, 18]         --
│    │    └─Conv2d: 3-868                [1, 256, 18, 18]          262,144
│    │    └─BatchNorm2d: 3-869           [1, 256, 18, 18]          512
│    │    └─ReLU: 3-870                  [1, 256, 18, 18]          --
│    │    └─Conv2d: 3-871                [1, 256, 18, 18]          589,824
│    │    └─BatchNorm2d: 3-872           [1, 256, 18, 18]          512
│    │    └─Identity: 3-873              [1, 256, 18, 18]          --
│    │    └─ReLU: 3-874                  [1, 256, 18, 18]          --
│    │    └─Identity: 3-875              [1, 256, 18, 18]          --
│    │    └─Conv2d: 3-876                [1, 1024, 18, 18]         262,144
│    │    └─BatchNorm2d: 3-877           [1, 1024, 18, 18]         2,048
│    │    └─SEModule: 3-878              [1, 1024, 18, 18]         525,568
│    │    └─ReLU: 3-879                  [1, 1024, 18, 18]         --
│    └─Bottleneck: 2-84                  [1, 1024, 18, 18]         --
│    │    └─Conv2d: 3-880                [1, 256, 18, 18]          262,144
│    │    └─BatchNorm2d: 3-881           [1, 256, 18, 18]          512
│    │    └─ReLU: 3-882                  [1, 256, 18, 18]          --
│    │    └─Conv2d: 3-883                [1, 256, 18, 18]          589,824
│    │    └─BatchNorm2d: 3-884           [1, 256, 18, 18]          512
│    │    └─Identity: 3-885              [1, 256, 18, 18]          --
│    │    └─ReLU: 3-886                  [1, 256, 18, 18]          --
│    │    └─Identity: 3-887              [1, 256, 18, 18]          --
│    │    └─Conv2d: 3-888                [1, 1024, 18, 18]         262,144
│    │    └─BatchNorm2d: 3-889           [1, 1024, 18, 18]         2,048
│    │    └─SEModule: 3-890              [1, 1024, 18, 18]         525,568
│    │    └─ReLU: 3-891                  [1, 1024, 18, 18]         --
│    └─Bottleneck: 2-85                  [1, 1024, 18, 18]         --
│    │    └─Conv2d: 3-892                [1, 256, 18, 18]          262,144
│    │    └─BatchNorm2d: 3-893           [1, 256, 18, 18]          512
│    │    └─ReLU: 3-894                  [1, 256, 18, 18]          --
│    │    └─Conv2d: 3-895                [1, 256, 18, 18]          589,824
│    │    └─BatchNorm2d: 3-896           [1, 256, 18, 18]          512
│    │    └─Identity: 3-897              [1, 256, 18, 18]          --
│    │    └─ReLU: 3-898                  [1, 256, 18, 18]          --
│    │    └─Identity: 3-899              [1, 256, 18, 18]          --
│    │    └─Conv2d: 3-900                [1, 1024, 18, 18]         262,144
│    │    └─BatchNorm2d: 3-901           [1, 1024, 18, 18]         2,048
│    │    └─SEModule: 3-902              [1, 1024, 18, 18]         525,568
│    │    └─ReLU: 3-903                  [1, 1024, 18, 18]         --
│    └─Bottleneck: 2-86                  [1, 1024, 18, 18]         --
│    │    └─Conv2d: 3-904                [1, 256, 18, 18]          262,144
│    │    └─BatchNorm2d: 3-905           [1, 256, 18, 18]          512
│    │    └─ReLU: 3-906                  [1, 256, 18, 18]          --
│    │    └─Conv2d: 3-907                [1, 256, 18, 18]          589,824
│    │    └─BatchNorm2d: 3-908           [1, 256, 18, 18]          512
│    │    └─Identity: 3-909              [1, 256, 18, 18]          --
│    │    └─ReLU: 3-910                  [1, 256, 18, 18]          --
│    │    └─Identity: 3-911              [1, 256, 18, 18]          --
│    │    └─Conv2d: 3-912                [1, 1024, 18, 18]         262,144
│    │    └─BatchNorm2d: 3-913           [1, 1024, 18, 18]         2,048
│    │    └─SEModule: 3-914              [1, 1024, 18, 18]         525,568
│    │    └─ReLU: 3-915                  [1, 1024, 18, 18]         --
│    └─Bottleneck: 2-87                  [1, 1024, 18, 18]         --
│    │    └─Conv2d: 3-916                [1, 256, 18, 18]          262,144
│    │    └─BatchNorm2d: 3-917           [1, 256, 18, 18]          512
│    │    └─ReLU: 3-918                  [1, 256, 18, 18]          --
│    │    └─Conv2d: 3-919                [1, 256, 18, 18]          589,824
│    │    └─BatchNorm2d: 3-920           [1, 256, 18, 18]          512
│    │    └─Identity: 3-921              [1, 256, 18, 18]          --
│    │    └─ReLU: 3-922                  [1, 256, 18, 18]          --
│    │    └─Identity: 3-923              [1, 256, 18, 18]          --
│    │    └─Conv2d: 3-924                [1, 1024, 18, 18]         262,144
│    │    └─BatchNorm2d: 3-925           [1, 1024, 18, 18]         2,048
│    │    └─SEModule: 3-926              [1, 1024, 18, 18]         525,568
│    │    └─ReLU: 3-927                  [1, 1024, 18, 18]         --
│    └─Bottleneck: 2-88                  [1, 1024, 18, 18]         --
│    │    └─Conv2d: 3-928                [1, 256, 18, 18]          262,144
│    │    └─BatchNorm2d: 3-929           [1, 256, 18, 18]          512
│    │    └─ReLU: 3-930                  [1, 256, 18, 18]          --
│    │    └─Conv2d: 3-931                [1, 256, 18, 18]          589,824
│    │    └─BatchNorm2d: 3-932           [1, 256, 18, 18]          512
│    │    └─Identity: 3-933              [1, 256, 18, 18]          --
│    │    └─ReLU: 3-934                  [1, 256, 18, 18]          --
│    │    └─Identity: 3-935              [1, 256, 18, 18]          --
│    │    └─Conv2d: 3-936                [1, 1024, 18, 18]         262,144
│    │    └─BatchNorm2d: 3-937           [1, 1024, 18, 18]         2,048
│    │    └─SEModule: 3-938              [1, 1024, 18, 18]         525,568
│    │    └─ReLU: 3-939                  [1, 1024, 18, 18]         --
│    └─Bottleneck: 2-89                  [1, 1024, 18, 18]         --
│    │    └─Conv2d: 3-940                [1, 256, 18, 18]          262,144
│    │    └─BatchNorm2d: 3-941           [1, 256, 18, 18]          512
│    │    └─ReLU: 3-942                  [1, 256, 18, 18]          --
│    │    └─Conv2d: 3-943                [1, 256, 18, 18]          589,824
│    │    └─BatchNorm2d: 3-944           [1, 256, 18, 18]          512
│    │    └─Identity: 3-945              [1, 256, 18, 18]          --
│    │    └─ReLU: 3-946                  [1, 256, 18, 18]          --
│    │    └─Identity: 3-947              [1, 256, 18, 18]          --
│    │    └─Conv2d: 3-948                [1, 1024, 18, 18]         262,144
│    │    └─BatchNorm2d: 3-949           [1, 1024, 18, 18]         2,048
│    │    └─SEModule: 3-950              [1, 1024, 18, 18]         525,568
│    │    └─ReLU: 3-951                  [1, 1024, 18, 18]         --
│    └─Bottleneck: 2-90                  [1, 1024, 18, 18]         --
│    │    └─Conv2d: 3-952                [1, 256, 18, 18]          262,144
│    │    └─BatchNorm2d: 3-953           [1, 256, 18, 18]          512
│    │    └─ReLU: 3-954                  [1, 256, 18, 18]          --
│    │    └─Conv2d: 3-955                [1, 256, 18, 18]          589,824
│    │    └─BatchNorm2d: 3-956           [1, 256, 18, 18]          512
│    │    └─Identity: 3-957              [1, 256, 18, 18]          --
│    │    └─ReLU: 3-958                  [1, 256, 18, 18]          --
│    │    └─Identity: 3-959              [1, 256, 18, 18]          --
│    │    └─Conv2d: 3-960                [1, 1024, 18, 18]         262,144
│    │    └─BatchNorm2d: 3-961           [1, 1024, 18, 18]         2,048
│    │    └─SEModule: 3-962              [1, 1024, 18, 18]         525,568
│    │    └─ReLU: 3-963                  [1, 1024, 18, 18]         --
│    └─Bottleneck: 2-91                  [1, 1024, 18, 18]         --
│    │    └─Conv2d: 3-964                [1, 256, 18, 18]          262,144
│    │    └─BatchNorm2d: 3-965           [1, 256, 18, 18]          512
│    │    └─ReLU: 3-966                  [1, 256, 18, 18]          --
│    │    └─Conv2d: 3-967                [1, 256, 18, 18]          589,824
│    │    └─BatchNorm2d: 3-968           [1, 256, 18, 18]          512
│    │    └─Identity: 3-969              [1, 256, 18, 18]          --
│    │    └─ReLU: 3-970                  [1, 256, 18, 18]          --
│    │    └─Identity: 3-971              [1, 256, 18, 18]          --
│    │    └─Conv2d: 3-972                [1, 1024, 18, 18]         262,144
│    │    └─BatchNorm2d: 3-973           [1, 1024, 18, 18]         2,048
│    │    └─SEModule: 3-974              [1, 1024, 18, 18]         525,568
│    │    └─ReLU: 3-975                  [1, 1024, 18, 18]         --
│    └─Bottleneck: 2-92                  [1, 1024, 18, 18]         --
│    │    └─Conv2d: 3-976                [1, 256, 18, 18]          262,144
│    │    └─BatchNorm2d: 3-977           [1, 256, 18, 18]          512
│    │    └─ReLU: 3-978                  [1, 256, 18, 18]          --
│    │    └─Conv2d: 3-979                [1, 256, 18, 18]          589,824
│    │    └─BatchNorm2d: 3-980           [1, 256, 18, 18]          512
│    │    └─Identity: 3-981              [1, 256, 18, 18]          --
│    │    └─ReLU: 3-982                  [1, 256, 18, 18]          --
│    │    └─Identity: 3-983              [1, 256, 18, 18]          --
│    │    └─Conv2d: 3-984                [1, 1024, 18, 18]         262,144
│    │    └─BatchNorm2d: 3-985           [1, 1024, 18, 18]         2,048
│    │    └─SEModule: 3-986              [1, 1024, 18, 18]         525,568
│    │    └─ReLU: 3-987                  [1, 1024, 18, 18]         --
│    └─Bottleneck: 2-93                  [1, 1024, 18, 18]         --
│    │    └─Conv2d: 3-988                [1, 256, 18, 18]          262,144
│    │    └─BatchNorm2d: 3-989           [1, 256, 18, 18]          512
│    │    └─ReLU: 3-990                  [1, 256, 18, 18]          --
│    │    └─Conv2d: 3-991                [1, 256, 18, 18]          589,824
│    │    └─BatchNorm2d: 3-992           [1, 256, 18, 18]          512
│    │    └─Identity: 3-993              [1, 256, 18, 18]          --
│    │    └─ReLU: 3-994                  [1, 256, 18, 18]          --
│    │    └─Identity: 3-995              [1, 256, 18, 18]          --
│    │    └─Conv2d: 3-996                [1, 1024, 18, 18]         262,144
│    │    └─BatchNorm2d: 3-997           [1, 1024, 18, 18]         2,048
│    │    └─SEModule: 3-998              [1, 1024, 18, 18]         525,568
│    │    └─ReLU: 3-999                  [1, 1024, 18, 18]         --
│    └─Bottleneck: 2-94                  [1, 1024, 18, 18]         --
│    │    └─Conv2d: 3-1000               [1, 256, 18, 18]          262,144
│    │    └─BatchNorm2d: 3-1001          [1, 256, 18, 18]          512
│    │    └─ReLU: 3-1002                 [1, 256, 18, 18]          --
│    │    └─Conv2d: 3-1003               [1, 256, 18, 18]          589,824
│    │    └─BatchNorm2d: 3-1004          [1, 256, 18, 18]          512
│    │    └─Identity: 3-1005             [1, 256, 18, 18]          --
│    │    └─ReLU: 3-1006                 [1, 256, 18, 18]          --
│    │    └─Identity: 3-1007             [1, 256, 18, 18]          --
│    │    └─Conv2d: 3-1008               [1, 1024, 18, 18]         262,144
│    │    └─BatchNorm2d: 3-1009          [1, 1024, 18, 18]         2,048
│    │    └─SEModule: 3-1010             [1, 1024, 18, 18]         525,568
│    │    └─ReLU: 3-1011                 [1, 1024, 18, 18]         --
│    └─Bottleneck: 2-95                  [1, 1024, 18, 18]         --
│    │    └─Conv2d: 3-1012               [1, 256, 18, 18]          262,144
│    │    └─BatchNorm2d: 3-1013          [1, 256, 18, 18]          512
│    │    └─ReLU: 3-1014                 [1, 256, 18, 18]          --
│    │    └─Conv2d: 3-1015               [1, 256, 18, 18]          589,824
│    │    └─BatchNorm2d: 3-1016          [1, 256, 18, 18]          512
│    │    └─Identity: 3-1017             [1, 256, 18, 18]          --
│    │    └─ReLU: 3-1018                 [1, 256, 18, 18]          --
│    │    └─Identity: 3-1019             [1, 256, 18, 18]          --
│    │    └─Conv2d: 3-1020               [1, 1024, 18, 18]         262,144
│    │    └─BatchNorm2d: 3-1021          [1, 1024, 18, 18]         2,048
│    │    └─SEModule: 3-1022             [1, 1024, 18, 18]         525,568
│    │    └─ReLU: 3-1023                 [1, 1024, 18, 18]         --
│    └─Bottleneck: 2-96                  [1, 1024, 18, 18]         --
│    │    └─Conv2d: 3-1024               [1, 256, 18, 18]          262,144
│    │    └─BatchNorm2d: 3-1025          [1, 256, 18, 18]          512
│    │    └─ReLU: 3-1026                 [1, 256, 18, 18]          --
│    │    └─Conv2d: 3-1027               [1, 256, 18, 18]          589,824
│    │    └─BatchNorm2d: 3-1028          [1, 256, 18, 18]          512
│    │    └─Identity: 3-1029             [1, 256, 18, 18]          --
│    │    └─ReLU: 3-1030                 [1, 256, 18, 18]          --
│    │    └─Identity: 3-1031             [1, 256, 18, 18]          --
│    │    └─Conv2d: 3-1032               [1, 1024, 18, 18]         262,144
│    │    └─BatchNorm2d: 3-1033          [1, 1024, 18, 18]         2,048
│    │    └─SEModule: 3-1034             [1, 1024, 18, 18]         525,568
│    │    └─ReLU: 3-1035                 [1, 1024, 18, 18]         --
│    └─Bottleneck: 2-97                  [1, 1024, 18, 18]         --
│    │    └─Conv2d: 3-1036               [1, 256, 18, 18]          262,144
│    │    └─BatchNorm2d: 3-1037          [1, 256, 18, 18]          512
│    │    └─ReLU: 3-1038                 [1, 256, 18, 18]          --
│    │    └─Conv2d: 3-1039               [1, 256, 18, 18]          589,824
│    │    └─BatchNorm2d: 3-1040          [1, 256, 18, 18]          512
│    │    └─Identity: 3-1041             [1, 256, 18, 18]          --
│    │    └─ReLU: 3-1042                 [1, 256, 18, 18]          --
│    │    └─Identity: 3-1043             [1, 256, 18, 18]          --
│    │    └─Conv2d: 3-1044               [1, 1024, 18, 18]         262,144
│    │    └─BatchNorm2d: 3-1045          [1, 1024, 18, 18]         2,048
│    │    └─SEModule: 3-1046             [1, 1024, 18, 18]         525,568
│    │    └─ReLU: 3-1047                 [1, 1024, 18, 18]         --
│    └─Bottleneck: 2-98                  [1, 1024, 18, 18]         --
│    │    └─Conv2d: 3-1048               [1, 256, 18, 18]          262,144
│    │    └─BatchNorm2d: 3-1049          [1, 256, 18, 18]          512
│    │    └─ReLU: 3-1050                 [1, 256, 18, 18]          --
│    │    └─Conv2d: 3-1051               [1, 256, 18, 18]          589,824
│    │    └─BatchNorm2d: 3-1052          [1, 256, 18, 18]          512
│    │    └─Identity: 3-1053             [1, 256, 18, 18]          --
│    │    └─ReLU: 3-1054                 [1, 256, 18, 18]          --
│    │    └─Identity: 3-1055             [1, 256, 18, 18]          --
│    │    └─Conv2d: 3-1056               [1, 1024, 18, 18]         262,144
│    │    └─BatchNorm2d: 3-1057          [1, 1024, 18, 18]         2,048
│    │    └─SEModule: 3-1058             [1, 1024, 18, 18]         525,568
│    │    └─ReLU: 3-1059                 [1, 1024, 18, 18]         --
│    └─Bottleneck: 2-99                  [1, 1024, 18, 18]         --
│    │    └─Conv2d: 3-1060               [1, 256, 18, 18]          262,144
│    │    └─BatchNorm2d: 3-1061          [1, 256, 18, 18]          512
│    │    └─ReLU: 3-1062                 [1, 256, 18, 18]          --
│    │    └─Conv2d: 3-1063               [1, 256, 18, 18]          589,824
│    │    └─BatchNorm2d: 3-1064          [1, 256, 18, 18]          512
│    │    └─Identity: 3-1065             [1, 256, 18, 18]          --
│    │    └─ReLU: 3-1066                 [1, 256, 18, 18]          --
│    │    └─Identity: 3-1067             [1, 256, 18, 18]          --
│    │    └─Conv2d: 3-1068               [1, 1024, 18, 18]         262,144
│    │    └─BatchNorm2d: 3-1069          [1, 1024, 18, 18]         2,048
│    │    └─SEModule: 3-1070             [1, 1024, 18, 18]         525,568
│    │    └─ReLU: 3-1071                 [1, 1024, 18, 18]         --
│    └─Bottleneck: 2-100                 [1, 1024, 18, 18]         --
│    │    └─Conv2d: 3-1072               [1, 256, 18, 18]          262,144
│    │    └─BatchNorm2d: 3-1073          [1, 256, 18, 18]          512
│    │    └─ReLU: 3-1074                 [1, 256, 18, 18]          --
│    │    └─Conv2d: 3-1075               [1, 256, 18, 18]          589,824
│    │    └─BatchNorm2d: 3-1076          [1, 256, 18, 18]          512
│    │    └─Identity: 3-1077             [1, 256, 18, 18]          --
│    │    └─ReLU: 3-1078                 [1, 256, 18, 18]          --
│    │    └─Identity: 3-1079             [1, 256, 18, 18]          --
│    │    └─Conv2d: 3-1080               [1, 1024, 18, 18]         262,144
│    │    └─BatchNorm2d: 3-1081          [1, 1024, 18, 18]         2,048
│    │    └─SEModule: 3-1082             [1, 1024, 18, 18]         525,568
│    │    └─ReLU: 3-1083                 [1, 1024, 18, 18]         --
│    └─Bottleneck: 2-101                 [1, 1024, 18, 18]         --
│    │    └─Conv2d: 3-1084               [1, 256, 18, 18]          262,144
│    │    └─BatchNorm2d: 3-1085          [1, 256, 18, 18]          512
│    │    └─ReLU: 3-1086                 [1, 256, 18, 18]          --
│    │    └─Conv2d: 3-1087               [1, 256, 18, 18]          589,824
│    │    └─BatchNorm2d: 3-1088          [1, 256, 18, 18]          512
│    │    └─Identity: 3-1089             [1, 256, 18, 18]          --
│    │    └─ReLU: 3-1090                 [1, 256, 18, 18]          --
│    │    └─Identity: 3-1091             [1, 256, 18, 18]          --
│    │    └─Conv2d: 3-1092               [1, 1024, 18, 18]         262,144
│    │    └─BatchNorm2d: 3-1093          [1, 1024, 18, 18]         2,048
│    │    └─SEModule: 3-1094             [1, 1024, 18, 18]         525,568
│    │    └─ReLU: 3-1095                 [1, 1024, 18, 18]         --
│    └─Bottleneck: 2-102                 [1, 1024, 18, 18]         --
│    │    └─Conv2d: 3-1096               [1, 256, 18, 18]          262,144
│    │    └─BatchNorm2d: 3-1097          [1, 256, 18, 18]          512
│    │    └─ReLU: 3-1098                 [1, 256, 18, 18]          --
│    │    └─Conv2d: 3-1099               [1, 256, 18, 18]          589,824
│    │    └─BatchNorm2d: 3-1100          [1, 256, 18, 18]          512
│    │    └─Identity: 3-1101             [1, 256, 18, 18]          --
│    │    └─ReLU: 3-1102                 [1, 256, 18, 18]          --
│    │    └─Identity: 3-1103             [1, 256, 18, 18]          --
│    │    └─Conv2d: 3-1104               [1, 1024, 18, 18]         262,144
│    │    └─BatchNorm2d: 3-1105          [1, 1024, 18, 18]         2,048
│    │    └─SEModule: 3-1106             [1, 1024, 18, 18]         525,568
│    │    └─ReLU: 3-1107                 [1, 1024, 18, 18]         --
│    └─Bottleneck: 2-103                 [1, 1024, 18, 18]         --
│    │    └─Conv2d: 3-1108               [1, 256, 18, 18]          262,144
│    │    └─BatchNorm2d: 3-1109          [1, 256, 18, 18]          512
│    │    └─ReLU: 3-1110                 [1, 256, 18, 18]          --
│    │    └─Conv2d: 3-1111               [1, 256, 18, 18]          589,824
│    │    └─BatchNorm2d: 3-1112          [1, 256, 18, 18]          512
│    │    └─Identity: 3-1113             [1, 256, 18, 18]          --
│    │    └─ReLU: 3-1114                 [1, 256, 18, 18]          --
│    │    └─Identity: 3-1115             [1, 256, 18, 18]          --
│    │    └─Conv2d: 3-1116               [1, 1024, 18, 18]         262,144
│    │    └─BatchNorm2d: 3-1117          [1, 1024, 18, 18]         2,048
│    │    └─SEModule: 3-1118             [1, 1024, 18, 18]         525,568
│    │    └─ReLU: 3-1119                 [1, 1024, 18, 18]         --
│    └─Bottleneck: 2-104                 [1, 1024, 18, 18]         --
│    │    └─Conv2d: 3-1120               [1, 256, 18, 18]          262,144
│    │    └─BatchNorm2d: 3-1121          [1, 256, 18, 18]          512
│    │    └─ReLU: 3-1122                 [1, 256, 18, 18]          --
│    │    └─Conv2d: 3-1123               [1, 256, 18, 18]          589,824
│    │    └─BatchNorm2d: 3-1124          [1, 256, 18, 18]          512
│    │    └─Identity: 3-1125             [1, 256, 18, 18]          --
│    │    └─ReLU: 3-1126                 [1, 256, 18, 18]          --
│    │    └─Identity: 3-1127             [1, 256, 18, 18]          --
│    │    └─Conv2d: 3-1128               [1, 1024, 18, 18]         262,144
│    │    └─BatchNorm2d: 3-1129          [1, 1024, 18, 18]         2,048
│    │    └─SEModule: 3-1130             [1, 1024, 18, 18]         525,568
│    │    └─ReLU: 3-1131                 [1, 1024, 18, 18]         --
│    └─Bottleneck: 2-105                 [1, 1024, 18, 18]         --
│    │    └─Conv2d: 3-1132               [1, 256, 18, 18]          262,144
│    │    └─BatchNorm2d: 3-1133          [1, 256, 18, 18]          512
│    │    └─ReLU: 3-1134                 [1, 256, 18, 18]          --
│    │    └─Conv2d: 3-1135               [1, 256, 18, 18]          589,824
│    │    └─BatchNorm2d: 3-1136          [1, 256, 18, 18]          512
│    │    └─Identity: 3-1137             [1, 256, 18, 18]          --
│    │    └─ReLU: 3-1138                 [1, 256, 18, 18]          --
│    │    └─Identity: 3-1139             [1, 256, 18, 18]          --
│    │    └─Conv2d: 3-1140               [1, 1024, 18, 18]         262,144
│    │    └─BatchNorm2d: 3-1141          [1, 1024, 18, 18]         2,048
│    │    └─SEModule: 3-1142             [1, 1024, 18, 18]         525,568
│    │    └─ReLU: 3-1143                 [1, 1024, 18, 18]         --
│    └─Bottleneck: 2-106                 [1, 1024, 18, 18]         --
│    │    └─Conv2d: 3-1144               [1, 256, 18, 18]          262,144
│    │    └─BatchNorm2d: 3-1145          [1, 256, 18, 18]          512
│    │    └─ReLU: 3-1146                 [1, 256, 18, 18]          --
│    │    └─Conv2d: 3-1147               [1, 256, 18, 18]          589,824
│    │    └─BatchNorm2d: 3-1148          [1, 256, 18, 18]          512
│    │    └─Identity: 3-1149             [1, 256, 18, 18]          --
│    │    └─ReLU: 3-1150                 [1, 256, 18, 18]          --
│    │    └─Identity: 3-1151             [1, 256, 18, 18]          --
│    │    └─Conv2d: 3-1152               [1, 1024, 18, 18]         262,144
│    │    └─BatchNorm2d: 3-1153          [1, 1024, 18, 18]         2,048
│    │    └─SEModule: 3-1154             [1, 1024, 18, 18]         525,568
│    │    └─ReLU: 3-1155                 [1, 1024, 18, 18]         --
│    └─Bottleneck: 2-107                 [1, 1024, 18, 18]         --
│    │    └─Conv2d: 3-1156               [1, 256, 18, 18]          262,144
│    │    └─BatchNorm2d: 3-1157          [1, 256, 18, 18]          512
│    │    └─ReLU: 3-1158                 [1, 256, 18, 18]          --
│    │    └─Conv2d: 3-1159               [1, 256, 18, 18]          589,824
│    │    └─BatchNorm2d: 3-1160          [1, 256, 18, 18]          512
│    │    └─Identity: 3-1161             [1, 256, 18, 18]          --
│    │    └─ReLU: 3-1162                 [1, 256, 18, 18]          --
│    │    └─Identity: 3-1163             [1, 256, 18, 18]          --
│    │    └─Conv2d: 3-1164               [1, 1024, 18, 18]         262,144
│    │    └─BatchNorm2d: 3-1165          [1, 1024, 18, 18]         2,048
│    │    └─SEModule: 3-1166             [1, 1024, 18, 18]         525,568
│    │    └─ReLU: 3-1167                 [1, 1024, 18, 18]         --
│    └─Bottleneck: 2-108                 [1, 1024, 18, 18]         --
│    │    └─Conv2d: 3-1168               [1, 256, 18, 18]          262,144
│    │    └─BatchNorm2d: 3-1169          [1, 256, 18, 18]          512
│    │    └─ReLU: 3-1170                 [1, 256, 18, 18]          --
│    │    └─Conv2d: 3-1171               [1, 256, 18, 18]          589,824
│    │    └─BatchNorm2d: 3-1172          [1, 256, 18, 18]          512
│    │    └─Identity: 3-1173             [1, 256, 18, 18]          --
│    │    └─ReLU: 3-1174                 [1, 256, 18, 18]          --
│    │    └─Identity: 3-1175             [1, 256, 18, 18]          --
│    │    └─Conv2d: 3-1176               [1, 1024, 18, 18]         262,144
│    │    └─BatchNorm2d: 3-1177          [1, 1024, 18, 18]         2,048
│    │    └─SEModule: 3-1178             [1, 1024, 18, 18]         525,568
│    │    └─ReLU: 3-1179                 [1, 1024, 18, 18]         --
│    └─Bottleneck: 2-109                 [1, 1024, 18, 18]         --
│    │    └─Conv2d: 3-1180               [1, 256, 18, 18]          262,144
│    │    └─BatchNorm2d: 3-1181          [1, 256, 18, 18]          512
│    │    └─ReLU: 3-1182                 [1, 256, 18, 18]          --
│    │    └─Conv2d: 3-1183               [1, 256, 18, 18]          589,824
│    │    └─BatchNorm2d: 3-1184          [1, 256, 18, 18]          512
│    │    └─Identity: 3-1185             [1, 256, 18, 18]          --
│    │    └─ReLU: 3-1186                 [1, 256, 18, 18]          --
│    │    └─Identity: 3-1187             [1, 256, 18, 18]          --
│    │    └─Conv2d: 3-1188               [1, 1024, 18, 18]         262,144
│    │    └─BatchNorm2d: 3-1189          [1, 1024, 18, 18]         2,048
│    │    └─SEModule: 3-1190             [1, 1024, 18, 18]         525,568
│    │    └─ReLU: 3-1191                 [1, 1024, 18, 18]         --
│    └─Bottleneck: 2-110                 [1, 1024, 18, 18]         --
│    │    └─Conv2d: 3-1192               [1, 256, 18, 18]          262,144
│    │    └─BatchNorm2d: 3-1193          [1, 256, 18, 18]          512
│    │    └─ReLU: 3-1194                 [1, 256, 18, 18]          --
│    │    └─Conv2d: 3-1195               [1, 256, 18, 18]          589,824
│    │    └─BatchNorm2d: 3-1196          [1, 256, 18, 18]          512
│    │    └─Identity: 3-1197             [1, 256, 18, 18]          --
│    │    └─ReLU: 3-1198                 [1, 256, 18, 18]          --
│    │    └─Identity: 3-1199             [1, 256, 18, 18]          --
│    │    └─Conv2d: 3-1200               [1, 1024, 18, 18]         262,144
│    │    └─BatchNorm2d: 3-1201          [1, 1024, 18, 18]         2,048
│    │    └─SEModule: 3-1202             [1, 1024, 18, 18]         525,568
│    │    └─ReLU: 3-1203                 [1, 1024, 18, 18]         --
│    └─Bottleneck: 2-111                 [1, 1024, 18, 18]         --
│    │    └─Conv2d: 3-1204               [1, 256, 18, 18]          262,144
│    │    └─BatchNorm2d: 3-1205          [1, 256, 18, 18]          512
│    │    └─ReLU: 3-1206                 [1, 256, 18, 18]          --
│    │    └─Conv2d: 3-1207               [1, 256, 18, 18]          589,824
│    │    └─BatchNorm2d: 3-1208          [1, 256, 18, 18]          512
│    │    └─Identity: 3-1209             [1, 256, 18, 18]          --
│    │    └─ReLU: 3-1210                 [1, 256, 18, 18]          --
│    │    └─Identity: 3-1211             [1, 256, 18, 18]          --
│    │    └─Conv2d: 3-1212               [1, 1024, 18, 18]         262,144
│    │    └─BatchNorm2d: 3-1213          [1, 1024, 18, 18]         2,048
│    │    └─SEModule: 3-1214             [1, 1024, 18, 18]         525,568
│    │    └─ReLU: 3-1215                 [1, 1024, 18, 18]         --
│    └─Bottleneck: 2-112                 [1, 1024, 18, 18]         --
│    │    └─Conv2d: 3-1216               [1, 256, 18, 18]          262,144
│    │    └─BatchNorm2d: 3-1217          [1, 256, 18, 18]          512
│    │    └─ReLU: 3-1218                 [1, 256, 18, 18]          --
│    │    └─Conv2d: 3-1219               [1, 256, 18, 18]          589,824
│    │    └─BatchNorm2d: 3-1220          [1, 256, 18, 18]          512
│    │    └─Identity: 3-1221             [1, 256, 18, 18]          --
│    │    └─ReLU: 3-1222                 [1, 256, 18, 18]          --
│    │    └─Identity: 3-1223             [1, 256, 18, 18]          --
│    │    └─Conv2d: 3-1224               [1, 1024, 18, 18]         262,144
│    │    └─BatchNorm2d: 3-1225          [1, 1024, 18, 18]         2,048
│    │    └─SEModule: 3-1226             [1, 1024, 18, 18]         525,568
│    │    └─ReLU: 3-1227                 [1, 1024, 18, 18]         --
│    └─Bottleneck: 2-113                 [1, 1024, 18, 18]         --
│    │    └─Conv2d: 3-1228               [1, 256, 18, 18]          262,144
│    │    └─BatchNorm2d: 3-1229          [1, 256, 18, 18]          512
│    │    └─ReLU: 3-1230                 [1, 256, 18, 18]          --
│    │    └─Conv2d: 3-1231               [1, 256, 18, 18]          589,824
│    │    └─BatchNorm2d: 3-1232          [1, 256, 18, 18]          512
│    │    └─Identity: 3-1233             [1, 256, 18, 18]          --
│    │    └─ReLU: 3-1234                 [1, 256, 18, 18]          --
│    │    └─Identity: 3-1235             [1, 256, 18, 18]          --
│    │    └─Conv2d: 3-1236               [1, 1024, 18, 18]         262,144
│    │    └─BatchNorm2d: 3-1237          [1, 1024, 18, 18]         2,048
│    │    └─SEModule: 3-1238             [1, 1024, 18, 18]         525,568
│    │    └─ReLU: 3-1239                 [1, 1024, 18, 18]         --
│    └─Bottleneck: 2-114                 [1, 1024, 18, 18]         --
│    │    └─Conv2d: 3-1240               [1, 256, 18, 18]          262,144
│    │    └─BatchNorm2d: 3-1241          [1, 256, 18, 18]          512
│    │    └─ReLU: 3-1242                 [1, 256, 18, 18]          --
│    │    └─Conv2d: 3-1243               [1, 256, 18, 18]          589,824
│    │    └─BatchNorm2d: 3-1244          [1, 256, 18, 18]          512
│    │    └─Identity: 3-1245             [1, 256, 18, 18]          --
│    │    └─ReLU: 3-1246                 [1, 256, 18, 18]          --
│    │    └─Identity: 3-1247             [1, 256, 18, 18]          --
│    │    └─Conv2d: 3-1248               [1, 1024, 18, 18]         262,144
│    │    └─BatchNorm2d: 3-1249          [1, 1024, 18, 18]         2,048
│    │    └─SEModule: 3-1250             [1, 1024, 18, 18]         525,568
│    │    └─ReLU: 3-1251                 [1, 1024, 18, 18]         --
│    └─Bottleneck: 2-115                 [1, 1024, 18, 18]         --
│    │    └─Conv2d: 3-1252               [1, 256, 18, 18]          262,144
│    │    └─BatchNorm2d: 3-1253          [1, 256, 18, 18]          512
│    │    └─ReLU: 3-1254                 [1, 256, 18, 18]          --
│    │    └─Conv2d: 3-1255               [1, 256, 18, 18]          589,824
│    │    └─BatchNorm2d: 3-1256          [1, 256, 18, 18]          512
│    │    └─Identity: 3-1257             [1, 256, 18, 18]          --
│    │    └─ReLU: 3-1258                 [1, 256, 18, 18]          --
│    │    └─Identity: 3-1259             [1, 256, 18, 18]          --
│    │    └─Conv2d: 3-1260               [1, 1024, 18, 18]         262,144
│    │    └─BatchNorm2d: 3-1261          [1, 1024, 18, 18]         2,048
│    │    └─SEModule: 3-1262             [1, 1024, 18, 18]         525,568
│    │    └─ReLU: 3-1263                 [1, 1024, 18, 18]         --
│    └─Bottleneck: 2-116                 [1, 1024, 18, 18]         --
│    │    └─Conv2d: 3-1264               [1, 256, 18, 18]          262,144
│    │    └─BatchNorm2d: 3-1265          [1, 256, 18, 18]          512
│    │    └─ReLU: 3-1266                 [1, 256, 18, 18]          --
│    │    └─Conv2d: 3-1267               [1, 256, 18, 18]          589,824
│    │    └─BatchNorm2d: 3-1268          [1, 256, 18, 18]          512
│    │    └─Identity: 3-1269             [1, 256, 18, 18]          --
│    │    └─ReLU: 3-1270                 [1, 256, 18, 18]          --
│    │    └─Identity: 3-1271             [1, 256, 18, 18]          --
│    │    └─Conv2d: 3-1272               [1, 1024, 18, 18]         262,144
│    │    └─BatchNorm2d: 3-1273          [1, 1024, 18, 18]         2,048
│    │    └─SEModule: 3-1274             [1, 1024, 18, 18]         525,568
│    │    └─ReLU: 3-1275                 [1, 1024, 18, 18]         --
│    └─Bottleneck: 2-117                 [1, 1024, 18, 18]         --
│    │    └─Conv2d: 3-1276               [1, 256, 18, 18]          262,144
│    │    └─BatchNorm2d: 3-1277          [1, 256, 18, 18]          512
│    │    └─ReLU: 3-1278                 [1, 256, 18, 18]          --
│    │    └─Conv2d: 3-1279               [1, 256, 18, 18]          589,824
│    │    └─BatchNorm2d: 3-1280          [1, 256, 18, 18]          512
│    │    └─Identity: 3-1281             [1, 256, 18, 18]          --
│    │    └─ReLU: 3-1282                 [1, 256, 18, 18]          --
│    │    └─Identity: 3-1283             [1, 256, 18, 18]          --
│    │    └─Conv2d: 3-1284               [1, 1024, 18, 18]         262,144
│    │    └─BatchNorm2d: 3-1285          [1, 1024, 18, 18]         2,048
│    │    └─SEModule: 3-1286             [1, 1024, 18, 18]         525,568
│    │    └─ReLU: 3-1287                 [1, 1024, 18, 18]         --
│    └─Bottleneck: 2-118                 [1, 1024, 18, 18]         --
│    │    └─Conv2d: 3-1288               [1, 256, 18, 18]          262,144
│    │    └─BatchNorm2d: 3-1289          [1, 256, 18, 18]          512
│    │    └─ReLU: 3-1290                 [1, 256, 18, 18]          --
│    │    └─Conv2d: 3-1291               [1, 256, 18, 18]          589,824
│    │    └─BatchNorm2d: 3-1292          [1, 256, 18, 18]          512
│    │    └─Identity: 3-1293             [1, 256, 18, 18]          --
│    │    └─ReLU: 3-1294                 [1, 256, 18, 18]          --
│    │    └─Identity: 3-1295             [1, 256, 18, 18]          --
│    │    └─Conv2d: 3-1296               [1, 1024, 18, 18]         262,144
│    │    └─BatchNorm2d: 3-1297          [1, 1024, 18, 18]         2,048
│    │    └─SEModule: 3-1298             [1, 1024, 18, 18]         525,568
│    │    └─ReLU: 3-1299                 [1, 1024, 18, 18]         --
│    └─Bottleneck: 2-119                 [1, 1024, 18, 18]         --
│    │    └─Conv2d: 3-1300               [1, 256, 18, 18]          262,144
│    │    └─BatchNorm2d: 3-1301          [1, 256, 18, 18]          512
│    │    └─ReLU: 3-1302                 [1, 256, 18, 18]          --
│    │    └─Conv2d: 3-1303               [1, 256, 18, 18]          589,824
│    │    └─BatchNorm2d: 3-1304          [1, 256, 18, 18]          512
│    │    └─Identity: 3-1305             [1, 256, 18, 18]          --
│    │    └─ReLU: 3-1306                 [1, 256, 18, 18]          --
│    │    └─Identity: 3-1307             [1, 256, 18, 18]          --
│    │    └─Conv2d: 3-1308               [1, 1024, 18, 18]         262,144
│    │    └─BatchNorm2d: 3-1309          [1, 1024, 18, 18]         2,048
│    │    └─SEModule: 3-1310             [1, 1024, 18, 18]         525,568
│    │    └─ReLU: 3-1311                 [1, 1024, 18, 18]         --
│    └─Bottleneck: 2-120                 [1, 1024, 18, 18]         --
│    │    └─Conv2d: 3-1312               [1, 256, 18, 18]          262,144
│    │    └─BatchNorm2d: 3-1313          [1, 256, 18, 18]          512
│    │    └─ReLU: 3-1314                 [1, 256, 18, 18]          --
│    │    └─Conv2d: 3-1315               [1, 256, 18, 18]          589,824
│    │    └─BatchNorm2d: 3-1316          [1, 256, 18, 18]          512
│    │    └─Identity: 3-1317             [1, 256, 18, 18]          --
│    │    └─ReLU: 3-1318                 [1, 256, 18, 18]          --
│    │    └─Identity: 3-1319             [1, 256, 18, 18]          --
│    │    └─Conv2d: 3-1320               [1, 1024, 18, 18]         262,144
│    │    └─BatchNorm2d: 3-1321          [1, 1024, 18, 18]         2,048
│    │    └─SEModule: 3-1322             [1, 1024, 18, 18]         525,568
│    │    └─ReLU: 3-1323                 [1, 1024, 18, 18]         --
│    └─Bottleneck: 2-121                 [1, 1024, 18, 18]         --
│    │    └─Conv2d: 3-1324               [1, 256, 18, 18]          262,144
│    │    └─BatchNorm2d: 3-1325          [1, 256, 18, 18]          512
│    │    └─ReLU: 3-1326                 [1, 256, 18, 18]          --
│    │    └─Conv2d: 3-1327               [1, 256, 18, 18]          589,824
│    │    └─BatchNorm2d: 3-1328          [1, 256, 18, 18]          512
│    │    └─Identity: 3-1329             [1, 256, 18, 18]          --
│    │    └─ReLU: 3-1330                 [1, 256, 18, 18]          --
│    │    └─Identity: 3-1331             [1, 256, 18, 18]          --
│    │    └─Conv2d: 3-1332               [1, 1024, 18, 18]         262,144
│    │    └─BatchNorm2d: 3-1333          [1, 1024, 18, 18]         2,048
│    │    └─SEModule: 3-1334             [1, 1024, 18, 18]         525,568
│    │    └─ReLU: 3-1335                 [1, 1024, 18, 18]         --
│    └─Bottleneck: 2-122                 [1, 1024, 18, 18]         --
│    │    └─Conv2d: 3-1336               [1, 256, 18, 18]          262,144
│    │    └─BatchNorm2d: 3-1337          [1, 256, 18, 18]          512
│    │    └─ReLU: 3-1338                 [1, 256, 18, 18]          --
│    │    └─Conv2d: 3-1339               [1, 256, 18, 18]          589,824
│    │    └─BatchNorm2d: 3-1340          [1, 256, 18, 18]          512
│    │    └─Identity: 3-1341             [1, 256, 18, 18]          --
│    │    └─ReLU: 3-1342                 [1, 256, 18, 18]          --
│    │    └─Identity: 3-1343             [1, 256, 18, 18]          --
│    │    └─Conv2d: 3-1344               [1, 1024, 18, 18]         262,144
│    │    └─BatchNorm2d: 3-1345          [1, 1024, 18, 18]         2,048
│    │    └─SEModule: 3-1346             [1, 1024, 18, 18]         525,568
│    │    └─ReLU: 3-1347                 [1, 1024, 18, 18]         --
├─Sequential: 1-8                        [1, 2048, 9, 9]           --
│    └─Bottleneck: 2-123                 [1, 2048, 9, 9]           --
│    │    └─Conv2d: 3-1348               [1, 512, 18, 18]          524,288
│    │    └─BatchNorm2d: 3-1349          [1, 512, 18, 18]          1,024
│    │    └─ReLU: 3-1350                 [1, 512, 18, 18]          --
│    │    └─Conv2d: 3-1351               [1, 512, 9, 9]            2,359,296
│    │    └─BatchNorm2d: 3-1352          [1, 512, 9, 9]            1,024
│    │    └─Identity: 3-1353             [1, 512, 9, 9]            --
│    │    └─ReLU: 3-1354                 [1, 512, 9, 9]            --
│    │    └─Identity: 3-1355             [1, 512, 9, 9]            --
│    │    └─Conv2d: 3-1356               [1, 2048, 9, 9]           1,048,576
│    │    └─BatchNorm2d: 3-1357          [1, 2048, 9, 9]           4,096
│    │    └─SEModule: 3-1358             [1, 2048, 9, 9]           2,099,712
│    │    └─Sequential: 3-1359           [1, 2048, 9, 9]           2,101,248
│    │    └─ReLU: 3-1360                 [1, 2048, 9, 9]           --
│    └─Bottleneck: 2-124                 [1, 2048, 9, 9]           --
│    │    └─Conv2d: 3-1361               [1, 512, 9, 9]            1,048,576
│    │    └─BatchNorm2d: 3-1362          [1, 512, 9, 9]            1,024
│    │    └─ReLU: 3-1363                 [1, 512, 9, 9]            --
│    │    └─Conv2d: 3-1364               [1, 512, 9, 9]            2,359,296
│    │    └─BatchNorm2d: 3-1365          [1, 512, 9, 9]            1,024
│    │    └─Identity: 3-1366             [1, 512, 9, 9]            --
│    │    └─ReLU: 3-1367                 [1, 512, 9, 9]            --
│    │    └─Identity: 3-1368             [1, 512, 9, 9]            --
│    │    └─Conv2d: 3-1369               [1, 2048, 9, 9]           1,048,576
│    │    └─BatchNorm2d: 3-1370          [1, 2048, 9, 9]           4,096
│    │    └─SEModule: 3-1371             [1, 2048, 9, 9]           2,099,712
│    │    └─ReLU: 3-1372                 [1, 2048, 9, 9]           --
│    └─Bottleneck: 2-125                 [1, 2048, 9, 9]           --
│    │    └─Conv2d: 3-1373               [1, 512, 9, 9]            1,048,576
│    │    └─BatchNorm2d: 3-1374          [1, 512, 9, 9]            1,024
│    │    └─ReLU: 3-1375                 [1, 512, 9, 9]            --
│    │    └─Conv2d: 3-1376               [1, 512, 9, 9]            2,359,296
│    │    └─BatchNorm2d: 3-1377          [1, 512, 9, 9]            1,024
│    │    └─Identity: 3-1378             [1, 512, 9, 9]            --
│    │    └─ReLU: 3-1379                 [1, 512, 9, 9]            --
│    │    └─Identity: 3-1380             [1, 512, 9, 9]            --
│    │    └─Conv2d: 3-1381               [1, 2048, 9, 9]           1,048,576
│    │    └─BatchNorm2d: 3-1382          [1, 2048, 9, 9]           4,096
│    │    └─SEModule: 3-1383             [1, 2048, 9, 9]           2,099,712
│    │    └─ReLU: 3-1384                 [1, 2048, 9, 9]           --
│    └─Bottleneck: 2-126                 [1, 2048, 9, 9]           --
│    │    └─Conv2d: 3-1385               [1, 512, 9, 9]            1,048,576
│    │    └─BatchNorm2d: 3-1386          [1, 512, 9, 9]            1,024
│    │    └─ReLU: 3-1387                 [1, 512, 9, 9]            --
│    │    └─Conv2d: 3-1388               [1, 512, 9, 9]            2,359,296
│    │    └─BatchNorm2d: 3-1389          [1, 512, 9, 9]            1,024
│    │    └─Identity: 3-1390             [1, 512, 9, 9]            --
│    │    └─ReLU: 3-1391                 [1, 512, 9, 9]            --
│    │    └─Identity: 3-1392             [1, 512, 9, 9]            --
│    │    └─Conv2d: 3-1393               [1, 2048, 9, 9]           1,048,576
│    │    └─BatchNorm2d: 3-1394          [1, 2048, 9, 9]           4,096
│    │    └─SEModule: 3-1395             [1, 2048, 9, 9]           2,099,712
│    │    └─ReLU: 3-1396                 [1, 2048, 9, 9]           --
├─SelectAdaptivePool2d: 1-9              [1, 2048]                 --
│    └─AdaptiveAvgPool2d: 2-127          [1, 2048, 1, 1]           --
│    └─Flatten: 2-128                    [1, 2048]                 --
├─Linear: 1-10                           [1, 1000]                 2,049,000
==========================================================================================
Total params: 163,956,168
Trainable params: 163,956,168
Non-trainable params: 0
Total mult-adds (G): 43.49
==========================================================================================
Input size (MB): 1.00
Forward/backward pass size (MB): 1392.49
Params size (MB): 655.82
Estimated Total Size (MB): 2049.31
…
