====================================================================================================
Layer (type:depth-idx)                             Output Shape              Param #
====================================================================================================
ResNetV2                                           [1, 1000]                 --
├─Sequential: 1-1                                  [1, 64, 112, 112]         --
│    └─StdConv2d: 2-1                              [1, 64, 224, 224]         9,408
│    └─ConstantPad2d: 2-2                          [1, 64, 226, 226]         --
│    └─MaxPool2d: 2-3                              [1, 64, 112, 112]         --
├─Sequential: 1-2                                  [1, 2048, 14, 14]         --
│    └─ResNetStage: 2-4                            [1, 256, 112, 112]        --
│    │    └─Sequential: 3-1                        [1, 256, 112, 112]        214,912
│    └─ResNetStage: 2-5                            [1, 512, 56, 56]          --
│    │    └─Sequential: 3-2                        [1, 512, 56, 56]          1,218,048
│    └─ResNetStage: 2-6                            [1, 1024, 28, 28]         --
│    │    └─Sequential: 3-3                        [1, 1024, 28, 28]         7,095,296
│    └─ResNetStage: 2-7                            [1, 2048, 14, 14]         --
│    │    └─Sequential: 3-4                        [1, 2048, 14, 14]         14,958,592
├─GroupNormAct: 1-3                                [1, 2048, 14, 14]         4,096
│    └─Identity: 2-8                               [1, 2048, 14, 14]         --
│    └─ReLU: 2-9                                   [1, 2048, 14, 14]         --
├─ClassifierHead: 1-4                              [1, 1000]                 --
│    └─SelectAdaptivePool2d: 2-10                  [1, 2048, 1, 1]           --
│    │    └─AdaptiveAvgPool2d: 3-5                 [1, 2048, 1, 1]           --
│    │    └─Identity: 3-6                          [1, 2048, 1, 1]           --
│    └─Dropout: 2-11                               [1, 2048, 1, 1]           --
│    └─Conv2d: 2-12                                [1, 1000, 1, 1]           2,049,000
│    └─Flatten: 2-13                               [1, 1000]                 --
====================================================================================================
Total params: 25,549,352
Trainable params: 25,549,352
Non-trainable params: 0
Total mult-adds (G): 16.35
====================================================================================================
Input size (MB): 2.41
Forward/backward pass size (MB): 355.66
Params size (MB): 102.02
Estimated Total Size (MB): 460.08
…
