====================================================================================================
Layer (type:depth-idx)                             Output Shape              Param #
====================================================================================================
ResNetV2                                           [1, 1000]                 --
├─Sequential: 1-1                                  [1, 64, 56, 56]           --
│    └─Conv2d: 2-1                                 [1, 64, 112, 112]         9,408
│    └─MaxPool2d: 2-2                              [1, 64, 56, 56]           --
├─Sequential: 1-2                                  [1, 2048, 7, 7]           --
│    └─ResNetStage: 2-3                            [1, 256, 56, 56]          --
│    │    └─Sequential: 3-1                        [1, 256, 56, 56]          214,912
│    └─ResNetStage: 2-4                            [1, 512, 28, 28]          --
│    │    └─Sequential: 3-2                        [1, 512, 28, 28]          1,218,048
│    └─ResNetStage: 2-5                            [1, 1024, 14, 14]         --
│    │    └─Sequential: 3-3                        [1, 1024, 14, 14]         26,087,424
│    └─ResNetStage: 2-6                            [1, 2048, 7, 7]           --
│    │    └─Sequential: 3-4                        [1, 2048, 7, 7]           14,958,592
├─BatchNormAct2d: 1-3                              [1, 2048, 7, 7]           4,096
│    └─Identity: 2-7                               [1, 2048, 7, 7]           --
│    └─ReLU: 2-8                                   [1, 2048, 7, 7]           --
├─ClassifierHead: 1-4                              [1, 1000]                 --
│    └─SelectAdaptivePool2d: 2-9                   [1, 2048, 1, 1]           --
│    │    └─AdaptiveAvgPool2d: 3-5                 [1, 2048, 1, 1]           --
│    │    └─Identity: 3-6                          [1, 2048, 1, 1]           --
│    └─Dropout: 2-10                               [1, 2048, 1, 1]           --
│    └─Conv2d: 2-11                                [1, 1000, 1, 1]           2,049,000
│    └─Flatten: 2-12                               [1, 1000]                 --
====================================================================================================
Total params: 44,541,480
Trainable params: 44,541,480
Non-trainable params: 0
Total mult-adds (G): 7.80
====================================================================================================
Input size (MB): 0.60
Forward/backward pass size (MB): 129.86
Params size (MB): 177.78
Estimated Total Size (MB): 308.24
…
