==========================================================================================
Layer (type:depth-idx)                   Output Shape              Param #
==========================================================================================
ResNet                                   [1, 1000]                 --
├─Conv2d: 1-1                            [1, 64, 112, 112]         9,408
├─BatchNorm2d: 1-2                       [1, 64, 112, 112]         128
├─ReLU: 1-3                              [1, 64, 112, 112]         --
├─MaxPool2d: 1-4                         [1, 64, 56, 56]           --
├─Sequential: 1-5                        [1, 256, 56, 56]          --
│    └─Bottleneck: 2-1                   [1, 256, 56, 56]          --
│    │    └─Conv2d: 3-1                  [1, 64, 56, 56]           4,096
│    │    └─BatchNorm2d: 3-2             [1, 64, 56, 56]           128
│    │    └─ReLU: 3-3                    [1, 64, 56, 56]           --
│    │    └─Conv2d: 3-4                  [1, 64, 56, 56]           36,864
│    │    └─BatchNorm2d: 3-5             [1, 64, 56, 56]           128
│    │    └─Identity: 3-6                [1, 64, 56, 56]           --
│    │    └─ReLU: 3-7                    [1, 64, 56, 56]           --
│    │    └─Identity: 3-8                [1, 64, 56, 56]           --
│    │    └─Conv2d: 3-9                  [1, 256, 56, 56]          16,384
│    │    └─BatchNorm2d: 3-10            [1, 256, 56, 56]          512
│    │    └─SEModule: 3-11               [1, 256, 56, 56]          8,464
│    │    └─Sequential: 3-12             [1, 256, 56, 56]          16,896
│    │    └─ReLU: 3-13                   [1, 256, 56, 56]          --
│    └─Bottleneck: 2-2                   [1, 256, 56, 56]          --
│    │    └─Conv2d: 3-14                 [1, 64, 56, 56]           16,384
│    │    └─BatchNorm2d: 3-15            [1, 64, 56, 56]           128
│    │    └─ReLU: 3-16                   [1, 64, 56, 56]           --
│    │    └─Conv2d: 3-17                 [1, 64, 56, 56]           36,864
│    │    └─BatchNorm2d: 3-18            [1, 64, 56, 56]           128
│    │    └─Identity: 3-19               [1, 64, 56, 56]           --
│    │    └─ReLU: 3-20                   [1, 64, 56, 56]           --
│    │    └─Identity: 3-21               [1, 64, 56, 56]           --
│    │    └─Conv2d: 3-22                 [1, 256, 56, 56]          16,384
│    │    └─BatchNorm2d: 3-23            [1, 256, 56, 56]          512
│    │    └─SEModule: 3-24               [1, 256, 56, 56]          8,464
│    │    └─ReLU: 3-25                   [1, 256, 56, 56]          --
│    └─Bottleneck: 2-3                   [1, 256, 56, 56]          --
│    │    └─Conv2d: 3-26                 [1, 64, 56, 56]           16,384
│    │    └─BatchNorm2d: 3-27            [1, 64, 56, 56]           128
│    │    └─ReLU: 3-28                   [1, 64, 56, 56]           --
│    │    └─Conv2d: 3-29                 [1, 64, 56, 56]           36,864
│    │    └─BatchNorm2d: 3-30            [1, 64, 56, 56]           128
│    │    └─Identity: 3-31               [1, 64, 56, 56]           --
│    │    └─ReLU: 3-32                   [1, 64, 56, 56]           --
│    │    └─Identity: 3-33               [1, 64, 56, 56]           --
│    │    └─Conv2d: 3-34                 [1, 256, 56, 56]          16,384
│    │    └─BatchNorm2d: 3-35            [1, 256, 56, 56]          512
│    │    └─SEModule: 3-36               [1, 256, 56, 56]          8,464
│    │    └─ReLU: 3-37                   [1, 256, 56, 56]          --
├─Sequential: 1-6                        [1, 512, 28, 28]          --
│    └─Bottleneck: 2-4                   [1, 512, 28, 28]          --
│    │    └─Conv2d: 3-38                 [1, 128, 56, 56]          32,768
│    │    └─BatchNorm2d: 3-39            [1, 128, 56, 56]          256
│    │    └─ReLU: 3-40                   [1, 128, 56, 56]          --
│    │    └─Conv2d: 3-41                 [1, 128, 28, 28]          147,456
│    │    └─BatchNorm2d: 3-42            [1, 128, 28, 28]          256
│    │    └─Identity: 3-43               [1, 128, 28, 28]          --
│    │    └─ReLU: 3-44                   [1, 128, 28, 28]          --
│    │    └─Identity: 3-45               [1, 128, 28, 28]          --
│    │    └─Conv2d: 3-46                 [1, 512, 28, 28]          65,536
│    │    └─BatchNorm2d: 3-47            [1, 512, 28, 28]          1,024
│    │    └─SEModule: 3-48               [1, 512, 28, 28]          33,312
│    │    └─Sequential: 3-49             [1, 512, 28, 28]          132,096
│    │    └─ReLU: 3-50                   [1, 512, 28, 28]          --
│    └─Bottleneck: 2-5                   [1, 512, 28, 28]          --
│    │    └─Conv2d: 3-51                 [1, 128, 28, 28]          65,536
│    │    └─BatchNorm2d: 3-52            [1, 128, 28, 28]          256
│    │    └─ReLU: 3-53                   [1, 128, 28, 28]          --
│    │    └─Conv2d: 3-54                 [1, 128, 28, 28]          147,456
│    │    └─BatchNorm2d: 3-55            [1, 128, 28, 28]          256
│    │    └─Identity: 3-56               [1, 128, 28, 28]          --
│    │    └─ReLU: 3-57                   [1, 128, 28, 28]          --
│    │    └─Identity: 3-58               [1, 128, 28, 28]          --
│    │    └─Conv2d: 3-59                 [1, 512, 28, 28]          65,536
│    │    └─BatchNorm2d: 3-60            [1, 512, 28, 28]          1,024
│    │    └─SEModule: 3-61               [1, 512, 28, 28]          33,312
│    │    └─ReLU: 3-62                   [1, 512, 28, 28]          --
│    └─Bottleneck: 2-6                   [1, 512, 28, 28]          --
│    │    └─Conv2d: 3-63                 [1, 128, 28, 28]          65,536
│    │    └─BatchNorm2d: 3-64            [1, 128, 28, 28]          256
│    │    └─ReLU: 3-65                   [1, 128, 28, 28]          --
│    │    └─Conv2d: 3-66                 [1, 128, 28, 28]          147,456
│    │    └─BatchNorm2d: 3-67            [1, 128, 28, 28]          256
│    │    └─Identity: 3-68               [1, 128, 28, 28]          --
│    │    └─ReLU: 3-69                   [1, 128, 28, 28]          --
│    │    └─Identity: 3-70               [1, 128, 28, 28]          --
│    │    └─Conv2d: 3-71                 [1, 512, 28, 28]          65,536
│    │    └─BatchNorm2d: 3-72            [1, 512, 28, 28]          1,024
│    │    └─SEModule: 3-73               [1, 512, 28, 28]          33,312
│    │    └─ReLU: 3-74                   [1, 512, 28, 28]          --
│    └─Bottleneck: 2-7                   [1, 512, 28, 28]          --
│    │    └─Conv2d: 3-75                 [1, 128, 28, 28]          65,536
│    │    └─BatchNorm2d: 3-76            [1, 128, 28, 28]          256
│    │    └─ReLU: 3-77                   [1, 128, 28, 28]          --
│    │    └─Conv2d: 3-78                 [1, 128, 28, 28]          147,456
│    │    └─BatchNorm2d: 3-79            [1, 128, 28, 28]          256
│    │    └─Identity: 3-80               [1, 128, 28, 28]          --
│    │    └─ReLU: 3-81                   [1, 128, 28, 28]          --
│    │    └─Identity: 3-82               [1, 128, 28, 28]          --
│    │    └─Conv2d: 3-83                 [1, 512, 28, 28]          65,536
│    │    └─BatchNorm2d: 3-84            [1, 512, 28, 28]          1,024
│    │    └─SEModule: 3-85               [1, 512, 28, 28]          33,312
│    │    └─ReLU: 3-86                   [1, 512, 28, 28]          --
├─Sequential: 1-7                        [1, 1024, 14, 14]         --
│    └─Bottleneck: 2-8                   [1, 1024, 14, 14]         --
│    │    └─Conv2d: 3-87                 [1, 256, 28, 28]          131,072
│    │    └─BatchNorm2d: 3-88            [1, 256, 28, 28]          512
│    │    └─ReLU: 3-89                   [1, 256, 28, 28]          --
│    │    └─Conv2d: 3-90                 [1, 256, 14, 14]          589,824
│    │    └─BatchNorm2d: 3-91            [1, 256, 14, 14]          512
│    │    └─Identity: 3-92               [1, 256, 14, 14]          --
│    │    └─ReLU: 3-93                   [1, 256, 14, 14]          --
│    │    └─Identity: 3-94               [1, 256, 14, 14]          --
│    │    └─Conv2d: 3-95                 [1, 1024, 14, 14]         262,144
│    │    └─BatchNorm2d: 3-96            [1, 1024, 14, 14]         2,048
│    │    └─SEModule: 3-97               [1, 1024, 14, 14]         132,160
│    │    └─Sequential: 3-98             [1, 1024, 14, 14]         526,336
│    │    └─ReLU: 3-99                   [1, 1024, 14, 14]         --
│    └─Bottleneck: 2-9                   [1, 1024, 14, 14]         --
│    │    └─Conv2d: 3-100                [1, 256, 14, 14]          262,144
│    │    └─BatchNorm2d: 3-101           [1, 256, 14, 14]          512
│    │    └─ReLU: 3-102                  [1, 256, 14, 14]          --
│    │    └─Conv2d: 3-103                [1, 256, 14, 14]          589,824
│    │    └─BatchNorm2d: 3-104           [1, 256, 14, 14]          512
│    │    └─Identity: 3-105              [1, 256, 14, 14]          --
│    │    └─ReLU: 3-106                  [1, 256, 14, 14]          --
│    │    └─Identity: 3-107              [1, 256, 14, 14]          --
│    │    └─Conv2d: 3-108                [1, 1024, 14, 14]         262,144
│    │    └─BatchNorm2d: 3-109           [1, 1024, 14, 14]         2,048
│    │    └─SEModule: 3-110              [1, 1024, 14, 14]         132,160
│    │    └─ReLU: 3-111                  [1, 1024, 14, 14]         --
│    └─Bottleneck: 2-10                  [1, 1024, 14, 14]         --
│    │    └─Conv2d: 3-112                [1, 256, 14, 14]          262,144
│    │    └─BatchNorm2d: 3-113           [1, 256, 14, 14]          512
│    │    └─ReLU: 3-114                  [1, 256, 14, 14]          --
│    │    └─Conv2d: 3-115                [1, 256, 14, 14]          589,824
│    │    └─BatchNorm2d: 3-116           [1, 256, 14, 14]          512
│    │    └─Identity: 3-117              [1, 256, 14, 14]          --
│    │    └─ReLU: 3-118                  [1, 256, 14, 14]          --
│    │    └─Identity: 3-119              [1, 256, 14, 14]          --
│    │    └─Conv2d: 3-120                [1, 1024, 14, 14]         262,144
│    │    └─BatchNorm2d: 3-121           [1, 1024, 14, 14]         2,048
│    │    └─SEModule: 3-122              [1, 1024, 14, 14]         132,160
│    │    └─ReLU: 3-123                  [1, 1024, 14, 14]         --
│    └─Bottleneck: 2-11                  [1, 1024, 14, 14]         --
│    │    └─Conv2d: 3-124                [1, 256, 14, 14]          262,144
│    │    └─BatchNorm2d: 3-125           [1, 256, 14, 14]          512
│    │    └─ReLU: 3-126                  [1, 256, 14, 14]          --
│    │    └─Conv2d: 3-127                [1, 256, 14, 14]          589,824
│    │    └─BatchNorm2d: 3-128           [1, 256, 14, 14]          512
│    │    └─Identity: 3-129              [1, 256, 14, 14]          --
│    │    └─ReLU: 3-130                  [1, 256, 14, 14]          --
│    │    └─Identity: 3-131              [1, 256, 14, 14]          --
│    │    └─Conv2d: 3-132                [1, 1024, 14, 14]         262,144
│    │    └─BatchNorm2d: 3-133           [1, 1024, 14, 14]         2,048
│    │    └─SEModule: 3-134              [1, 1024, 14, 14]         132,160
│    │    └─ReLU: 3-135                  [1, 1024, 14, 14]         --
│    └─Bottleneck: 2-12                  [1, 1024, 14, 14]         --
│    │    └─Conv2d: 3-136                [1, 256, 14, 14]          262,144
│    │    └─BatchNorm2d: 3-137           [1, 256, 14, 14]          512
│    │    └─ReLU: 3-138                  [1, 256, 14, 14]          --
│    │    └─Conv2d: 3-139                [1, 256, 14, 14]          589,824
│    │    └─BatchNorm2d: 3-140           [1, 256, 14, 14]          512
│    │    └─Identity: 3-141              [1, 256, 14, 14]          --
│    │    └─ReLU: 3-142                  [1, 256, 14, 14]          --
│    │    └─Identity: 3-143              [1, 256, 14, 14]          --
│    │    └─Conv2d: 3-144                [1, 1024, 14, 14]         262,144
│    │    └─BatchNorm2d: 3-145           [1, 1024, 14, 14]         2,048
│    │    └─SEModule: 3-146              [1, 1024, 14, 14]         132,160
│    │    └─ReLU: 3-147                  [1, 1024, 14, 14]         --
│    └─Bottleneck: 2-13                  [1, 1024, 14, 14]         --
│    │    └─Conv2d: 3-148                [1, 256, 14, 14]          262,144
│    │    └─BatchNorm2d: 3-149           [1, 256, 14, 14]          512
│    │    └─ReLU: 3-150                  [1, 256, 14, 14]          --
│    │    └─Conv2d: 3-151                [1, 256, 14, 14]          589,824
│    │    └─BatchNorm2d: 3-152           [1, 256, 14, 14]          512
│    │    └─Identity: 3-153              [1, 256, 14, 14]          --
│    │    └─ReLU: 3-154                  [1, 256, 14, 14]          --
│    │    └─Identity: 3-155              [1, 256, 14, 14]          --
│    │    └─Conv2d: 3-156                [1, 1024, 14, 14]         262,144
│    │    └─BatchNorm2d: 3-157           [1, 1024, 14, 14]         2,048
│    │    └─SEModule: 3-158              [1, 1024, 14, 14]         132,160
│    │    └─ReLU: 3-159                  [1, 1024, 14, 14]         --
├─Sequential: 1-8                        [1, 2048, 7, 7]           --
│    └─Bottleneck: 2-14                  [1, 2048, 7, 7]           --
│    │    └─Conv2d: 3-160                [1, 512, 14, 14]          524,288
│    │    └─BatchNorm2d: 3-161           [1, 512, 14, 14]          1,024
│    │    └─ReLU: 3-162                  [1, 512, 14, 14]          --
│    │    └─Conv2d: 3-163                [1, 512, 7, 7]            2,359,296
│    │    └─BatchNorm2d: 3-164           [1, 512, 7, 7]            1,024
│    │    └─Identity: 3-165              [1, 512, 7, 7]            --
│    │    └─ReLU: 3-166                  [1, 512, 7, 7]            --
│    │    └─Identity: 3-167              [1, 512, 7, 7]            --
│    │    └─Conv2d: 3-168                [1, 2048, 7, 7]           1,048,576
│    │    └─BatchNorm2d: 3-169           [1, 2048, 7, 7]           4,096
│    │    └─SEModule: 3-170              [1, 2048, 7, 7]           526,464
│    │    └─Sequential: 3-171            [1, 2048, 7, 7]           2,101,248
│    │    └─ReLU: 3-172                  [1, 2048, 7, 7]           --
│    └─Bottleneck: 2-15                  [1, 2048, 7, 7]           --
│    │    └─Conv2d: 3-173                [1, 512, 7, 7]            1,048,576
│    │    └─BatchNorm2d: 3-174           [1, 512, 7, 7]            1,024
│    │    └─ReLU: 3-175                  [1, 512, 7, 7]            --
│    │    └─Conv2d: 3-176                [1, 512, 7, 7]            2,359,296
│    │    └─BatchNorm2d: 3-177           [1, 512, 7, 7]            1,024
│    │    └─Identity: 3-178              [1, 512, 7, 7]            --
│    │    └─ReLU: 3-179                  [1, 512, 7, 7]            --
│    │    └─Identity: 3-180              [1, 512, 7, 7]            --
│    │    └─Conv2d: 3-181                [1, 2048, 7, 7]           1,048,576
│    │    └─BatchNorm2d: 3-182           [1, 2048, 7, 7]           4,096
│    │    └─SEModule: 3-183              [1, 2048, 7, 7]           526,464
│    │    └─ReLU: 3-184                  [1, 2048, 7, 7]           --
│    └─Bottleneck: 2-16                  [1, 2048, 7, 7]           --
│    │    └─Conv2d: 3-185                [1, 512, 7, 7]            1,048,576
│    │    └─BatchNorm2d: 3-186           [1, 512, 7, 7]            1,024
│    │    └─ReLU: 3-187                  [1, 512, 7, 7]            --
│    │    └─Conv2d: 3-188                [1, 512, 7, 7]            2,359,296
│    │    └─BatchNorm2d: 3-189           [1, 512, 7, 7]            1,024
│    │    └─Identity: 3-190              [1, 512, 7, 7]            --
│    │    └─ReLU: 3-191                  [1, 512, 7, 7]            --
│    │    └─Identity: 3-192              [1, 512, 7, 7]            --
│    │    └─Conv2d: 3-193                [1, 2048, 7, 7]           1,048,576
│    │    └─BatchNorm2d: 3-194           [1, 2048, 7, 7]           4,096
│    │    └─SEModule: 3-195              [1, 2048, 7, 7]           526,464
│    │    └─ReLU: 3-196                  [1, 2048, 7, 7]           --
├─SelectAdaptivePool2d: 1-9              [1, 2048]                 --
│    └─AdaptiveAvgPool2d: 2-17           [1, 2048, 1, 1]           --
│    └─Flatten: 2-18                     [1, 2048]                 --
├─Linear: 1-10                           [1, 1000]                 2,049,000
==========================================================================================
Total params: 28,088,024
Trainable params: 28,088,024
Non-trainable params: 0
Total mult-adds (G): 4.09
==========================================================================================
Input size (MB): 0.60
Forward/backward pass size (MB): 177.96
Params size (MB): 112.35
Estimated Total Size (MB): 290.91
…
