===============================================================================================
Layer (type:depth-idx)                        Output Shape              Param #
===============================================================================================
EfficientNet                                  [1, 1000]                 --
├─Conv2dSame: 1-1                             [1, 32, 192, 192]         864
├─BatchNormAct2d: 1-2                         [1, 32, 192, 192]         64
│    └─Identity: 2-1                          [1, 32, 192, 192]         --
│    └─SiLU: 2-2                              [1, 32, 192, 192]         --
├─Sequential: 1-3                             [1, 640, 12, 12]          --
│    └─Sequential: 2-3                        [1, 32, 192, 192]         --
│    │    └─ConvBnAct: 3-1                    [1, 32, 192, 192]         9,280
│    │    └─ConvBnAct: 3-2                    [1, 32, 192, 192]         9,280
│    │    └─ConvBnAct: 3-3                    [1, 32, 192, 192]         9,280
│    │    └─ConvBnAct: 3-4                    [1, 32, 192, 192]         9,280
│    └─Sequential: 2-4                        [1, 64, 96, 96]           --
│    │    └─EdgeResidual: 3-5                 [1, 64, 96, 96]           45,440
│    │    └─EdgeResidual: 3-6                 [1, 64, 96, 96]           164,480
│    │    └─EdgeResidual: 3-7                 [1, 64, 96, 96]           164,480
│    │    └─EdgeResidual: 3-8                 [1, 64, 96, 96]           164,480
│    │    └─EdgeResidual: 3-9                 [1, 64, 96, 96]           164,480
│    │    └─EdgeResidual: 3-10                [1, 64, 96, 96]           164,480
│    │    └─EdgeResidual: 3-11                [1, 64, 96, 96]           164,480
│    │    └─EdgeResidual: 3-12                [1, 64, 96, 96]           164,480
│    └─Sequential: 2-5                        [1, 96, 48, 48]           --
│    │    └─EdgeResidual: 3-13                [1, 96, 48, 48]           172,736
│    │    └─EdgeResidual: 3-14                [1, 96, 48, 48]           369,600
│    │    └─EdgeResidual: 3-15                [1, 96, 48, 48]           369,600
│    │    └─EdgeResidual: 3-16                [1, 96, 48, 48]           369,600
│    │    └─EdgeResidual: 3-17                [1, 96, 48, 48]           369,600
│    │    └─EdgeResidual: 3-18                [1, 96, 48, 48]           369,600
│    │    └─EdgeResidual: 3-19                [1, 96, 48, 48]           369,600
│    │    └─EdgeResidual: 3-20                [1, 96, 48, 48]           369,600
│    └─Sequential: 2-6                        [1, 192, 24, 24]          --
│    │    └─InvertedResidual: 3-21            [1, 192, 24, 24]          134,808
│    │    └─InvertedResidual: 3-22            [1, 192, 24, 24]          379,824
│    │    └─InvertedResidual: 3-23            [1, 192, 24, 24]          379,824
│    │    └─InvertedResidual: 3-24            [1, 192, 24, 24]          379,824
│    │    └─InvertedResidual: 3-25            [1, 192, 24, 24]          379,824
│    │    └─InvertedResidual: 3-26            [1, 192, 24, 24]          379,824
│    │    └─InvertedResidual: 3-27            [1, 192, 24, 24]          379,824
│    │    └─InvertedResidual: 3-28            [1, 192, 24, 24]          379,824
│    │    └─InvertedResidual: 3-29            [1, 192, 24, 24]          379,824
│    │    └─InvertedResidual: 3-30            [1, 192, 24, 24]          379,824
│    │    └─InvertedResidual: 3-31            [1, 192, 24, 24]          379,824
│    │    └─InvertedResidual: 3-32            [1, 192, 24, 24]          379,824
│    │    └─InvertedResidual: 3-33            [1, 192, 24, 24]          379,824
│    │    └─InvertedResidual: 3-34            [1, 192, 24, 24]          379,824
│    │    └─InvertedResidual: 3-35            [1, 192, 24, 24]          379,824
│    │    └─InvertedResidual: 3-36            [1, 192, 24, 24]          379,824
│    └─Sequential: 2-7                        [1, 256, 24, 24]          --
│    │    └─InvertedResidual: 3-37            [1, 256, 24, 24]          643,376
│    │    └─InvertedResidual: 3-38            [1, 256, 24, 24]          1,005,120
│    │    └─InvertedResidual: 3-39            [1, 256, 24, 24]          1,005,120
│    │    └─InvertedResidual: 3-40            [1, 256, 24, 24]          1,005,120
│    │    └─InvertedResidual: 3-41            [1, 256, 24, 24]          1,005,120
│    │    └─InvertedResidual: 3-42            [1, 256, 24, 24]          1,005,120
│    │    └─InvertedResidual: 3-43            [1, 256, 24, 24]          1,005,120
│    │    └─InvertedResidual: 3-44            [1, 256, 24, 24]          1,005,120
│    │    └─InvertedResidual: 3-45            [1, 256, 24, 24]          1,005,120
│    │    └─InvertedResidual: 3-46            [1, 256, 24, 24]          1,005,120
│    │    └─InvertedResidual: 3-47            [1, 256, 24, 24]          1,005,120
│    │    └─InvertedResidual: 3-48            [1, 256, 24, 24]          1,005,120
│    │    └─InvertedResidual: 3-49            [1, 256, 24, 24]          1,005,120
│    │    └─InvertedResidual: 3-50            [1, 256, 24, 24]          1,005,120
│    │    └─InvertedResidual: 3-51            [1, 256, 24, 24]          1,005,120
│    │    └─InvertedResidual: 3-52            [1, 256, 24, 24]          1,005,120
│    │    └─InvertedResidual: 3-53            [1, 256, 24, 24]          1,005,120
│    │    └─InvertedResidual: 3-54            [1, 256, 24, 24]          1,005,120
│    │    └─InvertedResidual: 3-55            [1, 256, 24, 24]          1,005,120
│    │    └─InvertedResidual: 3-56            [1, 256, 24, 24]          1,005,120
│    │    └─InvertedResidual: 3-57            [1, 256, 24, 24]          1,005,120
│    │    └─InvertedResidual: 3-58            [1, 256, 24, 24]          1,005,120
│    │    └─InvertedResidual: 3-59            [1, 256, 24, 24]          1,005,120
│    │    └─InvertedResidual: 3-60            [1, 256, 24, 24]          1,005,120
│    └─Sequential: 2-8                        [1, 512, 12, 12]          --
│    │    └─InvertedResidual: 3-61            [1, 512, 12, 12]          1,398,848
│    │    └─InvertedResidual: 3-62            [1, 512, 12, 12]          3,976,320
│    │    └─InvertedResidual: 3-63            [1, 512, 12, 12]          3,976,320
│    │    └─InvertedResidual: 3-64            [1, 512, 12, 12]          3,976,320
│    │    └─InvertedResidual: 3-65            [1, 512, 12, 12]          3,976,320
│    │    └─InvertedResidual: 3-66            [1, 512, 12, 12]          3,976,320
│    │    └─InvertedResidual: 3-67            [1, 512, 12, 12]          3,976,320
│    │    └─InvertedResidual: 3-68            [1, 512, 12, 12]          3,976,320
│    │    └─InvertedResidual: 3-69            [1, 512, 12, 12]          3,976,320
│    │    └─InvertedResidual: 3-70            [1, 512, 12, 12]          3,976,320
│    │    └─InvertedResidual: 3-71            [1, 512, 12, 12]          3,976,320
│    │    └─InvertedResidual: 3-72            [1, 512, 12, 12]          3,976,320
│    │    └─InvertedResidual: 3-73            [1, 512, 12, 12]          3,976,320
│    │    └─InvertedResidual: 3-74            [1, 512, 12, 12]          3,976,320
│    │    └─InvertedResidual: 3-75            [1, 512, 12, 12]          3,976,320
│    │    └─InvertedResidual: 3-76            [1, 512, 12, 12]          3,976,320
│    │    └─InvertedResidual: 3-77            [1, 512, 12, 12]          3,976,320
│    │    └─InvertedResidual: 3-78            [1, 512, 12, 12]          3,976,320
│    │    └─InvertedResidual: 3-79            [1, 512, 12, 12]          3,976,320
│    │    └─InvertedResidual: 3-80            [1, 512, 12, 12]          3,976,320
│    │    └─InvertedResidual: 3-81            [1, 512, 12, 12]          3,976,320
│    │    └─InvertedResidual: 3-82            [1, 512, 12, 12]          3,976,320
│    │    └─InvertedResidual: 3-83            [1, 512, 12, 12]          3,976,320
│    │    └─InvertedResidual: 3-84            [1, 512, 12, 12]          3,976,320
│    │    └─InvertedResidual: 3-85            [1, 512, 12, 12]          3,976,320
│    │    └─InvertedResidual: 3-86            [1, 512, 12, 12]          3,976,320
│    │    └─InvertedResidual: 3-87            [1, 512, 12, 12]          3,976,320
│    │    └─InvertedResidual: 3-88            [1, 512, 12, 12]          3,976,320
│    │    └─InvertedResidual: 3-89            [1, 512, 12, 12]          3,976,320
│    │    └─InvertedResidual: 3-90            [1, 512, 12, 12]          3,976,320
│    │    └─InvertedResidual: 3-91            [1, 512, 12, 12]          3,976,320
│    │    └─InvertedResidual: 3-92            [1, 512, 12, 12]          3,976,320
│    └─Sequential: 2-9                        [1, 640, 12, 12]          --
│    │    └─InvertedResidual: 3-93            [1, 640, 12, 12]          4,369,792
│    │    └─InvertedResidual: 3-94            [1, 640, 12, 12]          6,199,200
│    │    └─InvertedResidual: 3-95            [1, 640, 12, 12]          6,199,200
│    │    └─InvertedResidual: 3-96            [1, 640, 12, 12]          6,199,200
│    │    └─InvertedResidual: 3-97            [1, 640, 12, 12]          6,199,200
│    │    └─InvertedResidual: 3-98            [1, 640, 12, 12]          6,199,200
│    │    └─InvertedResidual: 3-99            [1, 640, 12, 12]          6,199,200
│    │    └─InvertedResidual: 3-100           [1, 640, 12, 12]          6,199,200
├─Conv2d: 1-4                                 [1, 1280, 12, 12]         819,200
├─BatchNormAct2d: 1-5                         [1, 1280, 12, 12]         2,560
│    └─Identity: 2-10                         [1, 1280, 12, 12]         --
│    └─SiLU: 2-11                             [1, 1280, 12, 12]         --
├─SelectAdaptivePool2d: 1-6                   [1, 1280]                 --
│    └─AdaptiveAvgPool2d: 2-12                [1, 1280, 1, 1]           --
│    └─Flatten: 2-13                          [1, 1280]                 --
├─Linear: 1-7                                 [1, 1000]                 1,281,000
===============================================================================================
Total params: 208,119,808
Trainable params: 208,119,808
Non-trainable params: 0
Total mult-adds (G): 52.53
===============================================================================================
Input size (MB): 1.77
Forward/backward pass size (MB): 1113.58
Params size (MB): 829.37
Estimated Total Size (MB): 1944.72
…
