===============================================================================================
Layer (type:depth-idx)                        Output Shape              Param #
===============================================================================================
EfficientNet                                  [1, 1000]                 --
├─Conv2dSame: 1-1                             [1, 16, 112, 112]         432
├─BatchNormAct2d: 1-2                         [1, 16, 112, 112]         32
│    └─Identity: 2-1                          [1, 16, 112, 112]         --
│    └─ReLU: 2-2                              [1, 16, 112, 112]         --
├─Sequential: 1-3                             [1, 200, 7, 7]            --
│    └─Sequential: 2-3                        [1, 16, 112, 112]         --
│    │    └─DepthwiseSeparableConv: 3-1       [1, 16, 112, 112]         464
│    └─Sequential: 2-4                        [1, 24, 56, 56]           --
│    │    └─InvertedResidual: 3-2             [1, 24, 56, 56]           3,216
│    │    └─InvertedResidual: 3-3             [1, 24, 56, 56]           2,712
│    └─Sequential: 2-5                        [1, 40, 28, 28]           --
│    │    └─InvertedResidual: 3-4             [1, 40, 28, 28]           17,468
│    │    └─InvertedResidual: 3-5             [1, 40, 28, 28]           24,580
│    │    └─InvertedResidual: 3-6             [1, 40, 28, 28]           24,580
│    │    └─InvertedResidual: 3-7             [1, 40, 28, 28]           24,580
│    └─Sequential: 2-6                        [1, 80, 14, 14]           --
│    │    └─InvertedResidual: 3-8             [1, 80, 14, 14]           32,010
│    │    └─InvertedResidual: 3-9             [1, 80, 14, 14]           87,540
│    │    └─InvertedResidual: 3-10            [1, 80, 14, 14]           87,540
│    └─Sequential: 2-7                        [1, 120, 14, 14]          --
│    │    └─InvertedResidual: 3-11            [1, 120, 14, 14]          102,360
│    │    └─InvertedResidual: 3-12            [1, 120, 14, 14]          103,260
│    │    └─InvertedResidual: 3-13            [1, 120, 14, 14]          103,260
│    └─Sequential: 2-8                        [1, 200, 7, 7]            --
│    │    └─InvertedResidual: 3-14            [1, 200, 7, 7]            361,900
│    │    └─InvertedResidual: 3-15            [1, 200, 7, 7]            655,700
│    │    └─InvertedResidual: 3-16            [1, 200, 7, 7]            655,700
├─Conv2d: 1-4                                 [1, 1536, 7, 7]           307,200
├─BatchNormAct2d: 1-5                         [1, 1536, 7, 7]           3,072
│    └─Identity: 2-9                          [1, 1536, 7, 7]           --
│    └─ReLU: 2-10                             [1, 1536, 7, 7]           --
├─SelectAdaptivePool2d: 1-6                   [1, 1536]                 --
│    └─AdaptiveAvgPool2d: 2-11                [1, 1536, 1, 1]           --
│    └─Flatten: 2-12                          [1, 1536]                 --
├─Linear: 1-7                                 [1, 1000]                 1,537,000
===============================================================================================
Total params: 4,134,606
Trainable params: 4,134,606
Non-trainable params: 0
Total mult-adds (M): 239.18
===============================================================================================
Input size (MB): 0.60
Forward/backward pass size (MB): 50.02
Params size (MB): 16.41
Estimated Total Size (MB): 67.03
…
