===============================================================================================
Layer (type:depth-idx)                        Output Shape              Param #
===============================================================================================
VOLO                                          [1, 1000]                 295,424
├─PatchEmbed: 1-1                             [1, 256, 48, 48]          --
│    └─Sequential: 2-1                        [1, 64, 192, 192]         --
│    │    └─Conv2d: 3-1                       [1, 64, 192, 192]         9,408
│    │    └─BatchNorm2d: 3-2                  [1, 64, 192, 192]         128
│    │    └─ReLU: 3-3                         [1, 64, 192, 192]         --
│    │    └─Conv2d: 3-4                       [1, 64, 192, 192]         36,864
│    │    └─BatchNorm2d: 3-5                  [1, 64, 192, 192]         128
│    │    └─ReLU: 3-6                         [1, 64, 192, 192]         --
│    │    └─Conv2d: 3-7                       [1, 64, 192, 192]         36,864
│    │    └─BatchNorm2d: 3-8                  [1, 64, 192, 192]         128
│    │    └─ReLU: 3-9                         [1, 64, 192, 192]         --
│    └─Conv2d: 2-2                            [1, 256, 48, 48]          262,400
├─ModuleList: 1-4                             --                        (recursive)
│    └─Sequential: 2-3                        [1, 48, 48, 256]          --
│    │    └─Outlooker: 3-10                   [1, 48, 48, 256]          693,128
│    │    └─Outlooker: 3-11                   [1, 48, 48, 256]          693,128
│    │    └─Outlooker: 3-12                   [1, 48, 48, 256]          693,128
│    │    └─Outlooker: 3-13                   [1, 48, 48, 256]          693,128
│    │    └─Outlooker: 3-14                   [1, 48, 48, 256]          693,128
│    │    └─Outlooker: 3-15                   [1, 48, 48, 256]          693,128
│    └─Downsample: 2-4                        [1, 24, 24, 512]          --
│    │    └─Conv2d: 3-16                      [1, 512, 24, 24]          524,800
├─Dropout: 1-3                                [1, 24, 24, 512]          --
├─ModuleList: 1-4                             --                        (recursive)
│    └─Sequential: 2-5                        [1, 24, 24, 512]          --
│    │    └─Transformer: 3-17                 [1, 24, 24, 512]          2,626,048
│    │    └─Transformer: 3-18                 [1, 24, 24, 512]          2,626,048
│    │    └─Transformer: 3-19                 [1, 24, 24, 512]          2,626,048
│    │    └─Transformer: 3-20                 [1, 24, 24, 512]          2,626,048
│    └─Sequential: 2-6                        [1, 24, 24, 512]          --
│    │    └─Transformer: 3-21                 [1, 24, 24, 512]          2,626,048
│    │    └─Transformer: 3-22                 [1, 24, 24, 512]          2,626,048
│    │    └─Transformer: 3-23                 [1, 24, 24, 512]          2,626,048
│    │    └─Transformer: 3-24                 [1, 24, 24, 512]          2,626,048
│    │    └─Transformer: 3-25                 [1, 24, 24, 512]          2,626,048
│    │    └─Transformer: 3-26                 [1, 24, 24, 512]          2,626,048
│    │    └─Transformer: 3-27                 [1, 24, 24, 512]          2,626,048
│    │    └─Transformer: 3-28                 [1, 24, 24, 512]          2,626,048
│    │    └─Transformer: 3-29                 [1, 24, 24, 512]          2,626,048
│    │    └─Transformer: 3-30                 [1, 24, 24, 512]          2,626,048
│    └─Sequential: 2-7                        [1, 24, 24, 512]          --
│    │    └─Transformer: 3-31                 [1, 24, 24, 512]          2,626,048
│    │    └─Transformer: 3-32                 [1, 24, 24, 512]          2,626,048
│    │    └─Transformer: 3-33                 [1, 24, 24, 512]          2,626,048
│    │    └─Transformer: 3-34                 [1, 24, 24, 512]          2,626,048
├─ModuleList: 1-5                             --                        --
│    └─ClassBlock: 2-8                        [1, 577, 512]             --
│    │    └─LayerNorm: 3-35                   [1, 577, 512]             1,024
│    │    └─ClassAttention: 3-36              [1, 1, 512]               1,049,088
│    │    └─Identity: 3-37                    [1, 1, 512]               --
│    │    └─LayerNorm: 3-38                   [1, 1, 512]               1,024
│    │    └─Mlp: 3-39                         [1, 1, 512]               1,574,912
│    │    └─Identity: 3-40                    [1, 1, 512]               --
│    └─ClassBlock: 2-9                        [1, 577, 512]             --
│    │    └─LayerNorm: 3-41                   [1, 577, 512]             1,024
│    │    └─ClassAttention: 3-42              [1, 1, 512]               1,049,088
│    │    └─Identity: 3-43                    [1, 1, 512]               --
│    │    └─LayerNorm: 3-44                   [1, 1, 512]               1,024
│    │    └─Mlp: 3-45                         [1, 1, 512]               1,574,912
│    │    └─Identity: 3-46                    [1, 1, 512]               --
├─LayerNorm: 1-6                              [1, 577, 512]             1,024
├─Dropout: 1-7                                [1, 577, 512]             --
├─Linear: 1-8                                 [1, 1000]                 513,000
├─Linear: 1-9                                 [1, 576, 1000]            513,000
===============================================================================================
Total params: 58,872,896
Trainable params: 58,872,896
Non-trainable params: 0
Total mult-adds (G): 4.03
===============================================================================================
Input size (MB): 1.77
Forward/backward pass size (MB): 810.62
Params size (MB): 234.31
Estimated Total Size (MB): 1046.70
…
