===============================================================================================
Layer (type:depth-idx)                        Output Shape              Param #
===============================================================================================
VOLO                                          [1, 1000]                 401,920
├─PatchEmbed: 1-1                             [1, 256, 56, 56]          --
│    └─Sequential: 2-1                        [1, 64, 224, 224]         --
│    │    └─Conv2d: 3-1                       [1, 64, 224, 224]         9,408
│    │    └─BatchNorm2d: 3-2                  [1, 64, 224, 224]         128
│    │    └─ReLU: 3-3                         [1, 64, 224, 224]         --
│    │    └─Conv2d: 3-4                       [1, 64, 224, 224]         36,864
│    │    └─BatchNorm2d: 3-5                  [1, 64, 224, 224]         128
│    │    └─ReLU: 3-6                         [1, 64, 224, 224]         --
│    │    └─Conv2d: 3-7                       [1, 64, 224, 224]         36,864
│    │    └─BatchNorm2d: 3-8                  [1, 64, 224, 224]         128
│    │    └─ReLU: 3-9                         [1, 64, 224, 224]         --
│    └─Conv2d: 2-2                            [1, 256, 56, 56]          262,400
├─ModuleList: 1-4                             --                        (recursive)
│    └─Sequential: 2-3                        [1, 56, 56, 256]          --
│    │    └─Outlooker: 3-10                   [1, 56, 56, 256]          693,128
│    │    └─Outlooker: 3-11                   [1, 56, 56, 256]          693,128
│    │    └─Outlooker: 3-12                   [1, 56, 56, 256]          693,128
│    │    └─Outlooker: 3-13                   [1, 56, 56, 256]          693,128
│    │    └─Outlooker: 3-14                   [1, 56, 56, 256]          693,128
│    │    └─Outlooker: 3-15                   [1, 56, 56, 256]          693,128
│    │    └─Outlooker: 3-16                   [1, 56, 56, 256]          693,128
│    │    └─Outlooker: 3-17                   [1, 56, 56, 256]          693,128
│    └─Downsample: 2-4                        [1, 28, 28, 512]          --
│    │    └─Conv2d: 3-18                      [1, 512, 28, 28]          524,800
├─Dropout: 1-3                                [1, 28, 28, 512]          --
├─ModuleList: 1-4                             --                        (recursive)
│    └─Sequential: 2-5                        [1, 28, 28, 512]          --
│    │    └─Transformer: 3-19                 [1, 28, 28, 512]          2,626,048
│    │    └─Transformer: 3-20                 [1, 28, 28, 512]          2,626,048
│    │    └─Transformer: 3-21                 [1, 28, 28, 512]          2,626,048
│    │    └─Transformer: 3-22                 [1, 28, 28, 512]          2,626,048
│    │    └─Transformer: 3-23                 [1, 28, 28, 512]          2,626,048
│    │    └─Transformer: 3-24                 [1, 28, 28, 512]          2,626,048
│    │    └─Transformer: 3-25                 [1, 28, 28, 512]          2,626,048
│    │    └─Transformer: 3-26                 [1, 28, 28, 512]          2,626,048
│    └─Sequential: 2-6                        [1, 28, 28, 512]          --
│    │    └─Transformer: 3-27                 [1, 28, 28, 512]          2,626,048
│    │    └─Transformer: 3-28                 [1, 28, 28, 512]          2,626,048
│    │    └─Transformer: 3-29                 [1, 28, 28, 512]          2,626,048
│    │    └─Transformer: 3-30                 [1, 28, 28, 512]          2,626,048
│    │    └─Transformer: 3-31                 [1, 28, 28, 512]          2,626,048
│    │    └─Transformer: 3-32                 [1, 28, 28, 512]          2,626,048
│    │    └─Transformer: 3-33                 [1, 28, 28, 512]          2,626,048
│    │    └─Transformer: 3-34                 [1, 28, 28, 512]          2,626,048
│    │    └─Transformer: 3-35                 [1, 28, 28, 512]          2,626,048
│    │    └─Transformer: 3-36                 [1, 28, 28, 512]          2,626,048
│    │    └─Transformer: 3-37                 [1, 28, 28, 512]          2,626,048
│    │    └─Transformer: 3-38                 [1, 28, 28, 512]          2,626,048
│    │    └─Transformer: 3-39                 [1, 28, 28, 512]          2,626,048
│    │    └─Transformer: 3-40                 [1, 28, 28, 512]          2,626,048
│    │    └─Transformer: 3-41                 [1, 28, 28, 512]          2,626,048
│    │    └─Transformer: 3-42                 [1, 28, 28, 512]          2,626,048
│    └─Sequential: 2-7                        [1, 28, 28, 512]          --
│    │    └─Transformer: 3-43                 [1, 28, 28, 512]          2,626,048
│    │    └─Transformer: 3-44                 [1, 28, 28, 512]          2,626,048
│    │    └─Transformer: 3-45                 [1, 28, 28, 512]          2,626,048
│    │    └─Transformer: 3-46                 [1, 28, 28, 512]          2,626,048
├─ModuleList: 1-5                             --                        --
│    └─ClassBlock: 2-8                        [1, 785, 512]             --
│    │    └─LayerNorm: 3-47                   [1, 785, 512]             1,024
│    │    └─ClassAttention: 3-48              [1, 1, 512]               1,049,088
│    │    └─Identity: 3-49                    [1, 1, 512]               --
│    │    └─LayerNorm: 3-50                   [1, 1, 512]               1,024
│    │    └─Mlp: 3-51                         [1, 1, 512]               1,574,912
│    │    └─Identity: 3-52                    [1, 1, 512]               --
│    └─ClassBlock: 2-9                        [1, 785, 512]             --
│    │    └─LayerNorm: 3-53                   [1, 785, 512]             1,024
│    │    └─ClassAttention: 3-54              [1, 1, 512]               1,049,088
│    │    └─Identity: 3-55                    [1, 1, 512]               --
│    │    └─LayerNorm: 3-56                   [1, 1, 512]               1,024
│    │    └─Mlp: 3-57                         [1, 1, 512]               1,574,912
│    │    └─Identity: 3-58                    [1, 1, 512]               --
├─LayerNorm: 1-6                              [1, 785, 512]             1,024
├─Dropout: 1-7                                [1, 785, 512]             --
├─Linear: 1-8                                 [1, 1000]                 513,000
├─Linear: 1-9                                 [1, 784, 1000]            513,000
===============================================================================================
Total params: 86,626,128
Trainable params: 86,626,128
Non-trainable params: 0
Total mult-adds (G): 5.49
===============================================================================================
Input size (MB): 2.41
Forward/backward pass size (MB): 1535.33
Params size (MB): 344.90
Estimated Total Size (MB): 1882.63
…
